<?xml version="1.0"?>
<net name="torch_jit" version="11">
	<layers>
		<layer id="0" name="images" type="Parameter" version="opset1">
			<data shape="1,640,640,3" element_type="u8" />
			<rt_info>
				<attribute name="fused_names" version="0" value="images" />
			</rt_info>
			<output>
				<port id="0" precision="U8" names="images">
					<dim>1</dim>
					<dim>640</dim>
					<dim>640</dim>
					<dim>3</dim>
					<rt_info>
						<attribute name="layout" version="0" layout="[N,H,W,C]" />
					</rt_info>
				</port>
			</output>
		</layer>
		<layer id="1" name="/model.22/Constant_860915187" type="Const" version="opset1">
			<data element_type="f32" shape="" offset="0" size="4" />
			<rt_info>
				<attribute name="fused_names" version="0" value="/model.22/Constant_8" />
			</rt_info>
			<output>
				<port id="0" precision="FP32" names="/model.22/Constant_8_output_0" />
			</output>
		</layer>
		<layer id="2" name="Convert_412252" type="Convert" version="opset1">
			<data destination_type="f32" />
			<input>
				<port id="0" precision="U8">
					<dim>1</dim>
					<dim>640</dim>
					<dim>640</dim>
					<dim>3</dim>
				</port>
			</input>
			<output>
				<port id="1" precision="FP32">
					<dim>1</dim>
					<dim>640</dim>
					<dim>640</dim>
					<dim>3</dim>
				</port>
			</output>
		</layer>
		<layer id="3" name="Constant_412253" type="Const" version="opset1">
			<data element_type="i64" shape="4" offset="4" size="32" />
			<output>
				<port id="0" precision="I64">
					<dim>4</dim>
				</port>
			</output>
		</layer>
		<layer id="4" name="Transpose_412254" type="Transpose" version="opset1">
			<input>
				<port id="0" precision="FP32">
					<dim>1</dim>
					<dim>640</dim>
					<dim>640</dim>
					<dim>3</dim>
				</port>
				<port id="1" precision="I64">
					<dim>4</dim>
				</port>
			</input>
			<output>
				<port id="2" precision="FP32">
					<dim>1</dim>
					<dim>3</dim>
					<dim>640</dim>
					<dim>640</dim>
				</port>
			</output>
		</layer>
		<layer id="5" name="Constant_412255" type="Const" version="opset1">
			<data element_type="f32" shape="1, 3, 1, 1" offset="36" size="12" />
			<output>
				<port id="0" precision="FP32">
					<dim>1</dim>
					<dim>3</dim>
					<dim>1</dim>
					<dim>1</dim>
				</port>
			</output>
		</layer>
		<layer id="6" name="Divide_412256" type="Divide" version="opset1">
			<data auto_broadcast="numpy" m_pythondiv="true" />
			<rt_info>
				<attribute name="preprocessing" version="0" />
			</rt_info>
			<input>
				<port id="0" precision="FP32">
					<dim>1</dim>
					<dim>3</dim>
					<dim>640</dim>
					<dim>640</dim>
				</port>
				<port id="1" precision="FP32">
					<dim>1</dim>
					<dim>3</dim>
					<dim>1</dim>
					<dim>1</dim>
				</port>
			</input>
			<output>
				<port id="2" precision="FP32">
					<dim>1</dim>
					<dim>3</dim>
					<dim>640</dim>
					<dim>640</dim>
				</port>
			</output>
		</layer>
		<layer id="7" name="3116312014893" type="Const" version="opset1">
			<data element_type="f32" shape="1, 1, 1, 1" offset="0" size="4" />
			<rt_info>
				<attribute name="fused_names" version="0" value="3116312014893" />
			</rt_info>
			<output>
				<port id="0" precision="FP32">
					<dim>1</dim>
					<dim>1</dim>
					<dim>1</dim>
					<dim>1</dim>
				</port>
			</output>
		</layer>
		<layer id="8" name="3117312115301" type="Const" version="opset1">
			<data element_type="f32" shape="1, 1, 1, 1" offset="48" size="4" />
			<rt_info>
				<attribute name="fused_names" version="0" value="3117312115301" />
			</rt_info>
			<output>
				<port id="0" precision="FP32">
					<dim>1</dim>
					<dim>1</dim>
					<dim>1</dim>
					<dim>1</dim>
				</port>
			</output>
		</layer>
		<layer id="9" name="3118312214506" type="Const" version="opset1">
			<data element_type="f32" shape="1, 1, 1, 1" offset="0" size="4" />
			<rt_info>
				<attribute name="fused_names" version="0" value="3118312214506" />
			</rt_info>
			<output>
				<port id="0" precision="FP32">
					<dim>1</dim>
					<dim>1</dim>
					<dim>1</dim>
					<dim>1</dim>
				</port>
			</output>
		</layer>
		<layer id="10" name="3119312315235" type="Const" version="opset1">
			<data element_type="f32" shape="1, 1, 1, 1" offset="48" size="4" />
			<rt_info>
				<attribute name="fused_names" version="0" value="3119312315235" />
			</rt_info>
			<output>
				<port id="0" precision="FP32">
					<dim>1</dim>
					<dim>1</dim>
					<dim>1</dim>
					<dim>1</dim>
				</port>
			</output>
		</layer>
		<layer id="11" name="/model.0/conv/Conv/WithoutBiases/fq_input_0" type="FakeQuantize" version="opset1">
			<data levels="256" auto_broadcast="numpy" />
			<rt_info>
				<attribute name="fused_names" version="0" value="/model.0/conv/Conv/WithoutBiases/fq_input_0" />
			</rt_info>
			<input>
				<port id="0" precision="FP32">
					<dim>1</dim>
					<dim>3</dim>
					<dim>640</dim>
					<dim>640</dim>
				</port>
				<port id="1" precision="FP32">
					<dim>1</dim>
					<dim>1</dim>
					<dim>1</dim>
					<dim>1</dim>
				</port>
				<port id="2" precision="FP32">
					<dim>1</dim>
					<dim>1</dim>
					<dim>1</dim>
					<dim>1</dim>
				</port>
				<port id="3" precision="FP32">
					<dim>1</dim>
					<dim>1</dim>
					<dim>1</dim>
					<dim>1</dim>
				</port>
				<port id="4" precision="FP32">
					<dim>1</dim>
					<dim>1</dim>
					<dim>1</dim>
					<dim>1</dim>
				</port>
			</input>
			<output>
				<port id="5" precision="FP32">
					<dim>1</dim>
					<dim>3</dim>
					<dim>640</dim>
					<dim>640</dim>
				</port>
			</output>
		</layer>
		<layer id="12" name="model.0.conv.weight6108306/quantized965215502" type="Const" version="opset1">
			<data element_type="i8" shape="16, 3, 3, 3" offset="52" size="432" />
			<rt_info>
				<attribute name="fused_names" version="0" value="model.0.conv.weight6108306/quantized965215502" />
			</rt_info>
			<output>
				<port id="0" precision="I8">
					<dim>16</dim>
					<dim>3</dim>
					<dim>3</dim>
					<dim>3</dim>
				</port>
			</output>
		</layer>
		<layer id="13" name="model.0.conv.weight6108306/quantized/to_f32" type="Convert" version="opset1">
			<data destination_type="f32" />
			<rt_info>
				<attribute name="fused_names" version="0" value="model.0.conv.weight6108306/quantized/to_f32" />
			</rt_info>
			<input>
				<port id="0" precision="I8">
					<dim>16</dim>
					<dim>3</dim>
					<dim>3</dim>
					<dim>3</dim>
				</port>
			</input>
			<output>
				<port id="1" precision="FP32">
					<dim>16</dim>
					<dim>3</dim>
					<dim>3</dim>
					<dim>3</dim>
				</port>
			</output>
		</layer>
		<layer id="14" name="/model.0/conv/Conv/WithoutBiases/fq_weights_1/scale966015541" type="Const" version="opset1">
			<data element_type="f32" shape="16, 1, 1, 1" offset="484" size="64" />
			<rt_info>
				<attribute name="fused_names" version="0" value="/model.0/conv/Conv/WithoutBiases/fq_weights_1/scale966015541" />
			</rt_info>
			<output>
				<port id="0" precision="FP32">
					<dim>16</dim>
					<dim>1</dim>
					<dim>1</dim>
					<dim>1</dim>
				</port>
			</output>
		</layer>
		<layer id="15" name="/model.0/conv/Conv/WithoutBiases/fq_weights_1/mulpiply_by_scale" type="Multiply" version="opset1">
			<data auto_broadcast="numpy" />
			<rt_info>
				<attribute name="fused_names" version="0" value="/model.0/conv/Conv/WithoutBiases/fq_weights_1/mulpiply_by_scale" />
			</rt_info>
			<input>
				<port id="0" precision="FP32">
					<dim>16</dim>
					<dim>3</dim>
					<dim>3</dim>
					<dim>3</dim>
				</port>
				<port id="1" precision="FP32">
					<dim>16</dim>
					<dim>1</dim>
					<dim>1</dim>
					<dim>1</dim>
				</port>
			</input>
			<output>
				<port id="2" precision="FP32">
					<dim>16</dim>
					<dim>3</dim>
					<dim>3</dim>
					<dim>3</dim>
				</port>
			</output>
		</layer>
		<layer id="16" name="/model.0/conv/Conv/WithoutBiases" type="Convolution" version="opset1">
			<data strides="2, 2" dilations="1, 1" pads_begin="1, 1" pads_end="1, 1" auto_pad="explicit" />
			<rt_info>
				<attribute name="fused_names" version="0" value="/model.0/conv/Conv/WithoutBiases" />
			</rt_info>
			<input>
				<port id="0" precision="FP32">
					<dim>1</dim>
					<dim>3</dim>
					<dim>640</dim>
					<dim>640</dim>
				</port>
				<port id="1" precision="FP32">
					<dim>16</dim>
					<dim>3</dim>
					<dim>3</dim>
					<dim>3</dim>
				</port>
			</input>
			<output>
				<port id="2" precision="FP32">
					<dim>1</dim>
					<dim>16</dim>
					<dim>320</dim>
					<dim>320</dim>
				</port>
			</output>
		</layer>
		<layer id="17" name="Reshape_14861214170" type="Const" version="opset1">
			<data element_type="f32" shape="1, 16, 1, 1" offset="548" size="64" />
			<rt_info>
				<attribute name="fused_names" version="0" value="Reshape_148" />
			</rt_info>
			<output>
				<port id="0" precision="FP32">
					<dim>1</dim>
					<dim>16</dim>
					<dim>1</dim>
					<dim>1</dim>
				</port>
			</output>
		</layer>
		<layer id="18" name="/model.0/conv/Conv" type="Add" version="opset1">
			<data auto_broadcast="numpy" />
			<rt_info>
				<attribute name="fused_names" version="0" value="/model.0/conv/Conv" />
			</rt_info>
			<input>
				<port id="0" precision="FP32">
					<dim>1</dim>
					<dim>16</dim>
					<dim>320</dim>
					<dim>320</dim>
				</port>
				<port id="1" precision="FP32">
					<dim>1</dim>
					<dim>16</dim>
					<dim>1</dim>
					<dim>1</dim>
				</port>
			</input>
			<output>
				<port id="2" precision="FP32" names="/model.0/conv/Conv_output_0">
					<dim>1</dim>
					<dim>16</dim>
					<dim>320</dim>
					<dim>320</dim>
				</port>
			</output>
		</layer>
		<layer id="19" name="/model.0/act/Mul" type="Swish" version="opset4">
			<rt_info>
				<attribute name="fused_names" version="0" value="/model.0/act/Mul" />
			</rt_info>
			<input>
				<port id="0" precision="FP32">
					<dim>1</dim>
					<dim>16</dim>
					<dim>320</dim>
					<dim>320</dim>
				</port>
			</input>
			<output>
				<port id="1" precision="FP32" names="/model.0/act/Mul_output_0">
					<dim>1</dim>
					<dim>16</dim>
					<dim>320</dim>
					<dim>320</dim>
				</port>
			</output>
		</layer>
		<layer id="20" name="2296230015331" type="Const" version="opset1">
			<data element_type="f32" shape="1, 1, 1, 1" offset="612" size="4" />
			<rt_info>
				<attribute name="fused_names" version="0" value="2296230015331" />
			</rt_info>
			<output>
				<port id="0" precision="FP32">
					<dim>1</dim>
					<dim>1</dim>
					<dim>1</dim>
					<dim>1</dim>
				</port>
			</output>
		</layer>
		<layer id="21" name="2297230115130" type="Const" version="opset1">
			<data element_type="f32" shape="1, 1, 1, 1" offset="616" size="4" />
			<rt_info>
				<attribute name="fused_names" version="0" value="2297230115130" />
			</rt_info>
			<output>
				<port id="0" precision="FP32">
					<dim>1</dim>
					<dim>1</dim>
					<dim>1</dim>
					<dim>1</dim>
				</port>
			</output>
		</layer>
		<layer id="22" name="2298230215160" type="Const" version="opset1">
			<data element_type="f32" shape="1, 1, 1, 1" offset="612" size="4" />
			<rt_info>
				<attribute name="fused_names" version="0" value="2298230215160" />
			</rt_info>
			<output>
				<port id="0" precision="FP32">
					<dim>1</dim>
					<dim>1</dim>
					<dim>1</dim>
					<dim>1</dim>
				</port>
			</output>
		</layer>
		<layer id="23" name="2299230314725" type="Const" version="opset1">
			<data element_type="f32" shape="1, 1, 1, 1" offset="616" size="4" />
			<rt_info>
				<attribute name="fused_names" version="0" value="2299230314725" />
			</rt_info>
			<output>
				<port id="0" precision="FP32">
					<dim>1</dim>
					<dim>1</dim>
					<dim>1</dim>
					<dim>1</dim>
				</port>
			</output>
		</layer>
		<layer id="24" name="/model.1/conv/Conv/WithoutBiases/fq_input_0" type="FakeQuantize" version="opset1">
			<data levels="256" auto_broadcast="numpy" />
			<rt_info>
				<attribute name="fused_names" version="0" value="/model.1/conv/Conv/WithoutBiases/fq_input_0" />
			</rt_info>
			<input>
				<port id="0" precision="FP32">
					<dim>1</dim>
					<dim>16</dim>
					<dim>320</dim>
					<dim>320</dim>
				</port>
				<port id="1" precision="FP32">
					<dim>1</dim>
					<dim>1</dim>
					<dim>1</dim>
					<dim>1</dim>
				</port>
				<port id="2" precision="FP32">
					<dim>1</dim>
					<dim>1</dim>
					<dim>1</dim>
					<dim>1</dim>
				</port>
				<port id="3" precision="FP32">
					<dim>1</dim>
					<dim>1</dim>
					<dim>1</dim>
					<dim>1</dim>
				</port>
				<port id="4" precision="FP32">
					<dim>1</dim>
					<dim>1</dim>
					<dim>1</dim>
					<dim>1</dim>
				</port>
			</input>
			<output>
				<port id="5" precision="FP32">
					<dim>1</dim>
					<dim>16</dim>
					<dim>320</dim>
					<dim>320</dim>
				</port>
			</output>
		</layer>
		<layer id="25" name="model.1.conv.weight6158308/quantized1094215643" type="Const" version="opset1">
			<data element_type="i8" shape="32, 16, 3, 3" offset="620" size="4608" />
			<rt_info>
				<attribute name="fused_names" version="0" value="model.1.conv.weight6158308/quantized1094215643" />
			</rt_info>
			<output>
				<port id="0" precision="I8">
					<dim>32</dim>
					<dim>16</dim>
					<dim>3</dim>
					<dim>3</dim>
				</port>
			</output>
		</layer>
		<layer id="26" name="model.1.conv.weight6158308/quantized/to_f32" type="Convert" version="opset1">
			<data destination_type="f32" />
			<rt_info>
				<attribute name="fused_names" version="0" value="model.1.conv.weight6158308/quantized/to_f32" />
			</rt_info>
			<input>
				<port id="0" precision="I8">
					<dim>32</dim>
					<dim>16</dim>
					<dim>3</dim>
					<dim>3</dim>
				</port>
			</input>
			<output>
				<port id="1" precision="FP32">
					<dim>32</dim>
					<dim>16</dim>
					<dim>3</dim>
					<dim>3</dim>
				</port>
			</output>
		</layer>
		<layer id="27" name="/model.1/conv/Conv/WithoutBiases/fq_weights_1/scale1095014731" type="Const" version="opset1">
			<data element_type="f32" shape="32, 1, 1, 1" offset="5228" size="128" />
			<rt_info>
				<attribute name="fused_names" version="0" value="/model.1/conv/Conv/WithoutBiases/fq_weights_1/scale1095014731" />
			</rt_info>
			<output>
				<port id="0" precision="FP32">
					<dim>32</dim>
					<dim>1</dim>
					<dim>1</dim>
					<dim>1</dim>
				</port>
			</output>
		</layer>
		<layer id="28" name="/model.1/conv/Conv/WithoutBiases/fq_weights_1/mulpiply_by_scale" type="Multiply" version="opset1">
			<data auto_broadcast="numpy" />
			<rt_info>
				<attribute name="fused_names" version="0" value="/model.1/conv/Conv/WithoutBiases/fq_weights_1/mulpiply_by_scale" />
			</rt_info>
			<input>
				<port id="0" precision="FP32">
					<dim>32</dim>
					<dim>16</dim>
					<dim>3</dim>
					<dim>3</dim>
				</port>
				<port id="1" precision="FP32">
					<dim>32</dim>
					<dim>1</dim>
					<dim>1</dim>
					<dim>1</dim>
				</port>
			</input>
			<output>
				<port id="2" precision="FP32">
					<dim>32</dim>
					<dim>16</dim>
					<dim>3</dim>
					<dim>3</dim>
				</port>
			</output>
		</layer>
		<layer id="29" name="/model.1/conv/Conv/WithoutBiases" type="Convolution" version="opset1">
			<data strides="2, 2" dilations="1, 1" pads_begin="1, 1" pads_end="1, 1" auto_pad="explicit" />
			<rt_info>
				<attribute name="fused_names" version="0" value="/model.1/conv/Conv/WithoutBiases" />
			</rt_info>
			<input>
				<port id="0" precision="FP32">
					<dim>1</dim>
					<dim>16</dim>
					<dim>320</dim>
					<dim>320</dim>
				</port>
				<port id="1" precision="FP32">
					<dim>32</dim>
					<dim>16</dim>
					<dim>3</dim>
					<dim>3</dim>
				</port>
			</input>
			<output>
				<port id="2" precision="FP32">
					<dim>1</dim>
					<dim>32</dim>
					<dim>160</dim>
					<dim>160</dim>
				</port>
			</output>
		</layer>
		<layer id="30" name="Reshape_19861714827" type="Const" version="opset1">
			<data element_type="f32" shape="1, 32, 1, 1" offset="5356" size="128" />
			<rt_info>
				<attribute name="fused_names" version="0" value="Reshape_198" />
			</rt_info>
			<output>
				<port id="0" precision="FP32">
					<dim>1</dim>
					<dim>32</dim>
					<dim>1</dim>
					<dim>1</dim>
				</port>
			</output>
		</layer>
		<layer id="31" name="/model.1/conv/Conv" type="Add" version="opset1">
			<data auto_broadcast="numpy" />
			<rt_info>
				<attribute name="fused_names" version="0" value="/model.1/conv/Conv" />
			</rt_info>
			<input>
				<port id="0" precision="FP32">
					<dim>1</dim>
					<dim>32</dim>
					<dim>160</dim>
					<dim>160</dim>
				</port>
				<port id="1" precision="FP32">
					<dim>1</dim>
					<dim>32</dim>
					<dim>1</dim>
					<dim>1</dim>
				</port>
			</input>
			<output>
				<port id="2" precision="FP32" names="/model.1/conv/Conv_output_0">
					<dim>1</dim>
					<dim>32</dim>
					<dim>160</dim>
					<dim>160</dim>
				</port>
			</output>
		</layer>
		<layer id="32" name="/model.1/act/Mul" type="Swish" version="opset4">
			<rt_info>
				<attribute name="fused_names" version="0" value="/model.1/act/Mul" />
			</rt_info>
			<input>
				<port id="0" precision="FP32">
					<dim>1</dim>
					<dim>32</dim>
					<dim>160</dim>
					<dim>160</dim>
				</port>
			</input>
			<output>
				<port id="1" precision="FP32" names="/model.1/act/Mul_output_0">
					<dim>1</dim>
					<dim>32</dim>
					<dim>160</dim>
					<dim>160</dim>
				</port>
			</output>
		</layer>
		<layer id="33" name="2396240014614" type="Const" version="opset1">
			<data element_type="f32" shape="1, 1, 1, 1" offset="5484" size="4" />
			<rt_info>
				<attribute name="fused_names" version="0" value="2396240014614" />
			</rt_info>
			<output>
				<port id="0" precision="FP32">
					<dim>1</dim>
					<dim>1</dim>
					<dim>1</dim>
					<dim>1</dim>
				</port>
			</output>
		</layer>
		<layer id="34" name="2397240114257" type="Const" version="opset1">
			<data element_type="f32" shape="1, 1, 1, 1" offset="5488" size="4" />
			<rt_info>
				<attribute name="fused_names" version="0" value="2397240114257" />
			</rt_info>
			<output>
				<port id="0" precision="FP32">
					<dim>1</dim>
					<dim>1</dim>
					<dim>1</dim>
					<dim>1</dim>
				</port>
			</output>
		</layer>
		<layer id="35" name="2398240214203" type="Const" version="opset1">
			<data element_type="f32" shape="1, 1, 1, 1" offset="5484" size="4" />
			<rt_info>
				<attribute name="fused_names" version="0" value="2398240214203" />
			</rt_info>
			<output>
				<port id="0" precision="FP32">
					<dim>1</dim>
					<dim>1</dim>
					<dim>1</dim>
					<dim>1</dim>
				</port>
			</output>
		</layer>
		<layer id="36" name="2399240314686" type="Const" version="opset1">
			<data element_type="f32" shape="1, 1, 1, 1" offset="5488" size="4" />
			<rt_info>
				<attribute name="fused_names" version="0" value="2399240314686" />
			</rt_info>
			<output>
				<port id="0" precision="FP32">
					<dim>1</dim>
					<dim>1</dim>
					<dim>1</dim>
					<dim>1</dim>
				</port>
			</output>
		</layer>
		<layer id="37" name="/model.2/cv1/conv/Conv/WithoutBiases/fq_input_0" type="FakeQuantize" version="opset1">
			<data levels="256" auto_broadcast="numpy" />
			<rt_info>
				<attribute name="fused_names" version="0" value="/model.2/cv1/conv/Conv/WithoutBiases/fq_input_0" />
			</rt_info>
			<input>
				<port id="0" precision="FP32">
					<dim>1</dim>
					<dim>32</dim>
					<dim>160</dim>
					<dim>160</dim>
				</port>
				<port id="1" precision="FP32">
					<dim>1</dim>
					<dim>1</dim>
					<dim>1</dim>
					<dim>1</dim>
				</port>
				<port id="2" precision="FP32">
					<dim>1</dim>
					<dim>1</dim>
					<dim>1</dim>
					<dim>1</dim>
				</port>
				<port id="3" precision="FP32">
					<dim>1</dim>
					<dim>1</dim>
					<dim>1</dim>
					<dim>1</dim>
				</port>
				<port id="4" precision="FP32">
					<dim>1</dim>
					<dim>1</dim>
					<dim>1</dim>
					<dim>1</dim>
				</port>
			</input>
			<output>
				<port id="5" precision="FP32">
					<dim>1</dim>
					<dim>32</dim>
					<dim>160</dim>
					<dim>160</dim>
				</port>
			</output>
		</layer>
		<layer id="38" name="model.2.cv1.conv.weight6208310/quantized953215607" type="Const" version="opset1">
			<data element_type="i8" shape="32, 32, 1, 1" offset="5492" size="1024" />
			<rt_info>
				<attribute name="fused_names" version="0" value="model.2.cv1.conv.weight6208310/quantized953215607" />
			</rt_info>
			<output>
				<port id="0" precision="I8">
					<dim>32</dim>
					<dim>32</dim>
					<dim>1</dim>
					<dim>1</dim>
				</port>
			</output>
		</layer>
		<layer id="39" name="model.2.cv1.conv.weight6208310/quantized/to_f32" type="Convert" version="opset1">
			<data destination_type="f32" />
			<rt_info>
				<attribute name="fused_names" version="0" value="model.2.cv1.conv.weight6208310/quantized/to_f32" />
			</rt_info>
			<input>
				<port id="0" precision="I8">
					<dim>32</dim>
					<dim>32</dim>
					<dim>1</dim>
					<dim>1</dim>
				</port>
			</input>
			<output>
				<port id="1" precision="FP32">
					<dim>32</dim>
					<dim>32</dim>
					<dim>1</dim>
					<dim>1</dim>
				</port>
			</output>
		</layer>
		<layer id="40" name="/model.2/cv1/conv/Conv/WithoutBiases/fq_weights_1/scale954014167" type="Const" version="opset1">
			<data element_type="f32" shape="32, 1, 1, 1" offset="6516" size="128" />
			<rt_info>
				<attribute name="fused_names" version="0" value="/model.2/cv1/conv/Conv/WithoutBiases/fq_weights_1/scale954014167" />
			</rt_info>
			<output>
				<port id="0" precision="FP32">
					<dim>32</dim>
					<dim>1</dim>
					<dim>1</dim>
					<dim>1</dim>
				</port>
			</output>
		</layer>
		<layer id="41" name="/model.2/cv1/conv/Conv/WithoutBiases/fq_weights_1/mulpiply_by_scale" type="Multiply" version="opset1">
			<data auto_broadcast="numpy" />
			<rt_info>
				<attribute name="fused_names" version="0" value="/model.2/cv1/conv/Conv/WithoutBiases/fq_weights_1/mulpiply_by_scale" />
			</rt_info>
			<input>
				<port id="0" precision="FP32">
					<dim>32</dim>
					<dim>32</dim>
					<dim>1</dim>
					<dim>1</dim>
				</port>
				<port id="1" precision="FP32">
					<dim>32</dim>
					<dim>1</dim>
					<dim>1</dim>
					<dim>1</dim>
				</port>
			</input>
			<output>
				<port id="2" precision="FP32">
					<dim>32</dim>
					<dim>32</dim>
					<dim>1</dim>
					<dim>1</dim>
				</port>
			</output>
		</layer>
		<layer id="42" name="/model.2/cv1/conv/Conv/WithoutBiases" type="Convolution" version="opset1">
			<data strides="1, 1" dilations="1, 1" pads_begin="0, 0" pads_end="0, 0" auto_pad="explicit" />
			<rt_info>
				<attribute name="fused_names" version="0" value="/model.2/cv1/conv/Conv/WithoutBiases" />
			</rt_info>
			<input>
				<port id="0" precision="FP32">
					<dim>1</dim>
					<dim>32</dim>
					<dim>160</dim>
					<dim>160</dim>
				</port>
				<port id="1" precision="FP32">
					<dim>32</dim>
					<dim>32</dim>
					<dim>1</dim>
					<dim>1</dim>
				</port>
			</input>
			<output>
				<port id="2" precision="FP32">
					<dim>1</dim>
					<dim>32</dim>
					<dim>160</dim>
					<dim>160</dim>
				</port>
			</output>
		</layer>
		<layer id="43" name="Reshape_24862215442" type="Const" version="opset1">
			<data element_type="f32" shape="1, 32, 1, 1" offset="6644" size="128" />
			<rt_info>
				<attribute name="fused_names" version="0" value="Reshape_248" />
			</rt_info>
			<output>
				<port id="0" precision="FP32">
					<dim>1</dim>
					<dim>32</dim>
					<dim>1</dim>
					<dim>1</dim>
				</port>
			</output>
		</layer>
		<layer id="44" name="/model.2/cv1/conv/Conv" type="Add" version="opset1">
			<data auto_broadcast="numpy" />
			<rt_info>
				<attribute name="fused_names" version="0" value="/model.2/cv1/conv/Conv" />
			</rt_info>
			<input>
				<port id="0" precision="FP32">
					<dim>1</dim>
					<dim>32</dim>
					<dim>160</dim>
					<dim>160</dim>
				</port>
				<port id="1" precision="FP32">
					<dim>1</dim>
					<dim>32</dim>
					<dim>1</dim>
					<dim>1</dim>
				</port>
			</input>
			<output>
				<port id="2" precision="FP32" names="/model.2/cv1/conv/Conv_output_0">
					<dim>1</dim>
					<dim>32</dim>
					<dim>160</dim>
					<dim>160</dim>
				</port>
			</output>
		</layer>
		<layer id="45" name="/model.2/cv1/act/Mul" type="Swish" version="opset4">
			<rt_info>
				<attribute name="fused_names" version="0" value="/model.2/cv1/act/Mul" />
			</rt_info>
			<input>
				<port id="0" precision="FP32">
					<dim>1</dim>
					<dim>32</dim>
					<dim>160</dim>
					<dim>160</dim>
				</port>
			</input>
			<output>
				<port id="1" precision="FP32" names="/model.2/cv1/act/Mul_output_0">
					<dim>1</dim>
					<dim>32</dim>
					<dim>160</dim>
					<dim>160</dim>
				</port>
			</output>
		</layer>
		<layer id="46" name="4720472415121" type="Const" version="opset1">
			<data element_type="f32" shape="1, 1, 1, 1" offset="6772" size="4" />
			<rt_info>
				<attribute name="fused_names" version="0" value="4720472415121" />
			</rt_info>
			<output>
				<port id="0" precision="FP32">
					<dim>1</dim>
					<dim>1</dim>
					<dim>1</dim>
					<dim>1</dim>
				</port>
			</output>
		</layer>
		<layer id="47" name="4721472515610" type="Const" version="opset1">
			<data element_type="f32" shape="1, 1, 1, 1" offset="6776" size="4" />
			<rt_info>
				<attribute name="fused_names" version="0" value="4721472515610" />
			</rt_info>
			<output>
				<port id="0" precision="FP32">
					<dim>1</dim>
					<dim>1</dim>
					<dim>1</dim>
					<dim>1</dim>
				</port>
			</output>
		</layer>
		<layer id="48" name="4722472615307" type="Const" version="opset1">
			<data element_type="f32" shape="1, 1, 1, 1" offset="6772" size="4" />
			<rt_info>
				<attribute name="fused_names" version="0" value="4722472615307" />
			</rt_info>
			<output>
				<port id="0" precision="FP32">
					<dim>1</dim>
					<dim>1</dim>
					<dim>1</dim>
					<dim>1</dim>
				</port>
			</output>
		</layer>
		<layer id="49" name="4723472715628" type="Const" version="opset1">
			<data element_type="f32" shape="1, 1, 1, 1" offset="6776" size="4" />
			<rt_info>
				<attribute name="fused_names" version="0" value="4723472715628" />
			</rt_info>
			<output>
				<port id="0" precision="FP32">
					<dim>1</dim>
					<dim>1</dim>
					<dim>1</dim>
					<dim>1</dim>
				</port>
			</output>
		</layer>
		<layer id="50" name="/model.2/Split/fq_input_0" type="FakeQuantize" version="opset1">
			<data levels="256" auto_broadcast="numpy" />
			<rt_info>
				<attribute name="fused_names" version="0" value="/model.2/Split/fq_input_0" />
			</rt_info>
			<input>
				<port id="0" precision="FP32">
					<dim>1</dim>
					<dim>32</dim>
					<dim>160</dim>
					<dim>160</dim>
				</port>
				<port id="1" precision="FP32">
					<dim>1</dim>
					<dim>1</dim>
					<dim>1</dim>
					<dim>1</dim>
				</port>
				<port id="2" precision="FP32">
					<dim>1</dim>
					<dim>1</dim>
					<dim>1</dim>
					<dim>1</dim>
				</port>
				<port id="3" precision="FP32">
					<dim>1</dim>
					<dim>1</dim>
					<dim>1</dim>
					<dim>1</dim>
				</port>
				<port id="4" precision="FP32">
					<dim>1</dim>
					<dim>1</dim>
					<dim>1</dim>
					<dim>1</dim>
				</port>
			</input>
			<output>
				<port id="5" precision="FP32">
					<dim>1</dim>
					<dim>32</dim>
					<dim>160</dim>
					<dim>160</dim>
				</port>
			</output>
		</layer>
		<layer id="51" name="Constant_27962514467" type="Const" version="opset1">
			<data element_type="i64" shape="" offset="6780" size="8" />
			<rt_info>
				<attribute name="fused_names" version="0" value="Constant_279" />
			</rt_info>
			<output>
				<port id="0" precision="I64" />
			</output>
		</layer>
		<layer id="52" name="Constant_962615148" type="Const" version="opset1">
			<data element_type="i64" shape="2" offset="6788" size="16" />
			<rt_info>
				<attribute name="fused_names" version="0" value="Constant_9" />
			</rt_info>
			<output>
				<port id="0" precision="I64" names="onnx::Split_141">
					<dim>2</dim>
				</port>
			</output>
		</layer>
		<layer id="53" name="/model.2/Split" type="VariadicSplit" version="opset1">
			<rt_info>
				<attribute name="fused_names" version="0" value="/model.2/Split" />
			</rt_info>
			<input>
				<port id="0" precision="FP32">
					<dim>1</dim>
					<dim>32</dim>
					<dim>160</dim>
					<dim>160</dim>
				</port>
				<port id="1" precision="I64" />
				<port id="2" precision="I64">
					<dim>2</dim>
				</port>
			</input>
			<output>
				<port id="3" precision="FP32" names="/model.2/Split_output_0">
					<dim>1</dim>
					<dim>16</dim>
					<dim>160</dim>
					<dim>160</dim>
				</port>
				<port id="4" precision="FP32" names="/model.2/Split_output_1">
					<dim>1</dim>
					<dim>16</dim>
					<dim>160</dim>
					<dim>160</dim>
				</port>
			</output>
		</layer>
		<layer id="54" name="model.2.m.0.cv1.conv.weight6298314/quantized968215388" type="Const" version="opset1">
			<data element_type="i8" shape="16, 16, 3, 3" offset="6804" size="2304" />
			<rt_info>
				<attribute name="fused_names" version="0" value="model.2.m.0.cv1.conv.weight6298314/quantized968215388" />
			</rt_info>
			<output>
				<port id="0" precision="I8">
					<dim>16</dim>
					<dim>16</dim>
					<dim>3</dim>
					<dim>3</dim>
				</port>
			</output>
		</layer>
		<layer id="55" name="model.2.m.0.cv1.conv.weight6298314/quantized/to_f32" type="Convert" version="opset1">
			<data destination_type="f32" />
			<rt_info>
				<attribute name="fused_names" version="0" value="model.2.m.0.cv1.conv.weight6298314/quantized/to_f32" />
			</rt_info>
			<input>
				<port id="0" precision="I8">
					<dim>16</dim>
					<dim>16</dim>
					<dim>3</dim>
					<dim>3</dim>
				</port>
			</input>
			<output>
				<port id="1" precision="FP32">
					<dim>16</dim>
					<dim>16</dim>
					<dim>3</dim>
					<dim>3</dim>
				</port>
			</output>
		</layer>
		<layer id="56" name="/model.2/m.0/cv1/conv/Conv/WithoutBiases/fq_weights_1/scale969015052" type="Const" version="opset1">
			<data element_type="f32" shape="16, 1, 1, 1" offset="9108" size="64" />
			<rt_info>
				<attribute name="fused_names" version="0" value="/model.2/m.0/cv1/conv/Conv/WithoutBiases/fq_weights_1/scale969015052" />
			</rt_info>
			<output>
				<port id="0" precision="FP32">
					<dim>16</dim>
					<dim>1</dim>
					<dim>1</dim>
					<dim>1</dim>
				</port>
			</output>
		</layer>
		<layer id="57" name="/model.2/m.0/cv1/conv/Conv/WithoutBiases/fq_weights_1/mulpiply_by_scale" type="Multiply" version="opset1">
			<data auto_broadcast="numpy" />
			<rt_info>
				<attribute name="fused_names" version="0" value="/model.2/m.0/cv1/conv/Conv/WithoutBiases/fq_weights_1/mulpiply_by_scale" />
			</rt_info>
			<input>
				<port id="0" precision="FP32">
					<dim>16</dim>
					<dim>16</dim>
					<dim>3</dim>
					<dim>3</dim>
				</port>
				<port id="1" precision="FP32">
					<dim>16</dim>
					<dim>1</dim>
					<dim>1</dim>
					<dim>1</dim>
				</port>
			</input>
			<output>
				<port id="2" precision="FP32">
					<dim>16</dim>
					<dim>16</dim>
					<dim>3</dim>
					<dim>3</dim>
				</port>
			</output>
		</layer>
		<layer id="58" name="/model.2/m.0/cv1/conv/Conv/WithoutBiases" type="Convolution" version="opset1">
			<data strides="1, 1" dilations="1, 1" pads_begin="1, 1" pads_end="1, 1" auto_pad="explicit" />
			<rt_info>
				<attribute name="fused_names" version="0" value="/model.2/m.0/cv1/conv/Conv/WithoutBiases" />
			</rt_info>
			<input>
				<port id="0" precision="FP32">
					<dim>1</dim>
					<dim>16</dim>
					<dim>160</dim>
					<dim>160</dim>
				</port>
				<port id="1" precision="FP32">
					<dim>16</dim>
					<dim>16</dim>
					<dim>3</dim>
					<dim>3</dim>
				</port>
			</input>
			<output>
				<port id="2" precision="FP32">
					<dim>1</dim>
					<dim>16</dim>
					<dim>160</dim>
					<dim>160</dim>
				</port>
			</output>
		</layer>
		<layer id="59" name="Reshape_30163115691" type="Const" version="opset1">
			<data element_type="f32" shape="1, 16, 1, 1" offset="9172" size="64" />
			<rt_info>
				<attribute name="fused_names" version="0" value="Reshape_301" />
			</rt_info>
			<output>
				<port id="0" precision="FP32">
					<dim>1</dim>
					<dim>16</dim>
					<dim>1</dim>
					<dim>1</dim>
				</port>
			</output>
		</layer>
		<layer id="60" name="/model.2/m.0/cv1/conv/Conv" type="Add" version="opset1">
			<data auto_broadcast="numpy" />
			<rt_info>
				<attribute name="fused_names" version="0" value="/model.2/m.0/cv1/conv/Conv" />
			</rt_info>
			<input>
				<port id="0" precision="FP32">
					<dim>1</dim>
					<dim>16</dim>
					<dim>160</dim>
					<dim>160</dim>
				</port>
				<port id="1" precision="FP32">
					<dim>1</dim>
					<dim>16</dim>
					<dim>1</dim>
					<dim>1</dim>
				</port>
			</input>
			<output>
				<port id="2" precision="FP32" names="/model.2/m.0/cv1/conv/Conv_output_0">
					<dim>1</dim>
					<dim>16</dim>
					<dim>160</dim>
					<dim>160</dim>
				</port>
			</output>
		</layer>
		<layer id="61" name="/model.2/m.0/cv1/act/Mul" type="Swish" version="opset4">
			<rt_info>
				<attribute name="fused_names" version="0" value="/model.2/m.0/cv1/act/Mul" />
			</rt_info>
			<input>
				<port id="0" precision="FP32">
					<dim>1</dim>
					<dim>16</dim>
					<dim>160</dim>
					<dim>160</dim>
				</port>
			</input>
			<output>
				<port id="1" precision="FP32" names="/model.2/m.0/cv1/act/Mul_output_0">
					<dim>1</dim>
					<dim>16</dim>
					<dim>160</dim>
					<dim>160</dim>
				</port>
			</output>
		</layer>
		<layer id="62" name="2696270015259" type="Const" version="opset1">
			<data element_type="f32" shape="1, 1, 1, 1" offset="5484" size="4" />
			<rt_info>
				<attribute name="fused_names" version="0" value="2696270015259" />
			</rt_info>
			<output>
				<port id="0" precision="FP32">
					<dim>1</dim>
					<dim>1</dim>
					<dim>1</dim>
					<dim>1</dim>
				</port>
			</output>
		</layer>
		<layer id="63" name="2697270114746" type="Const" version="opset1">
			<data element_type="f32" shape="1, 1, 1, 1" offset="9236" size="4" />
			<rt_info>
				<attribute name="fused_names" version="0" value="2697270114746" />
			</rt_info>
			<output>
				<port id="0" precision="FP32">
					<dim>1</dim>
					<dim>1</dim>
					<dim>1</dim>
					<dim>1</dim>
				</port>
			</output>
		</layer>
		<layer id="64" name="2698270214248" type="Const" version="opset1">
			<data element_type="f32" shape="1, 1, 1, 1" offset="5484" size="4" />
			<rt_info>
				<attribute name="fused_names" version="0" value="2698270214248" />
			</rt_info>
			<output>
				<port id="0" precision="FP32">
					<dim>1</dim>
					<dim>1</dim>
					<dim>1</dim>
					<dim>1</dim>
				</port>
			</output>
		</layer>
		<layer id="65" name="2699270315334" type="Const" version="opset1">
			<data element_type="f32" shape="1, 1, 1, 1" offset="9236" size="4" />
			<rt_info>
				<attribute name="fused_names" version="0" value="2699270315334" />
			</rt_info>
			<output>
				<port id="0" precision="FP32">
					<dim>1</dim>
					<dim>1</dim>
					<dim>1</dim>
					<dim>1</dim>
				</port>
			</output>
		</layer>
		<layer id="66" name="/model.2/m.0/cv2/conv/Conv/WithoutBiases/fq_input_0" type="FakeQuantize" version="opset1">
			<data levels="256" auto_broadcast="numpy" />
			<rt_info>
				<attribute name="fused_names" version="0" value="/model.2/m.0/cv2/conv/Conv/WithoutBiases/fq_input_0" />
			</rt_info>
			<input>
				<port id="0" precision="FP32">
					<dim>1</dim>
					<dim>16</dim>
					<dim>160</dim>
					<dim>160</dim>
				</port>
				<port id="1" precision="FP32">
					<dim>1</dim>
					<dim>1</dim>
					<dim>1</dim>
					<dim>1</dim>
				</port>
				<port id="2" precision="FP32">
					<dim>1</dim>
					<dim>1</dim>
					<dim>1</dim>
					<dim>1</dim>
				</port>
				<port id="3" precision="FP32">
					<dim>1</dim>
					<dim>1</dim>
					<dim>1</dim>
					<dim>1</dim>
				</port>
				<port id="4" precision="FP32">
					<dim>1</dim>
					<dim>1</dim>
					<dim>1</dim>
					<dim>1</dim>
				</port>
			</input>
			<output>
				<port id="5" precision="FP32">
					<dim>1</dim>
					<dim>16</dim>
					<dim>160</dim>
					<dim>160</dim>
				</port>
			</output>
		</layer>
		<layer id="67" name="model.2.m.0.cv2.conv.weight6348316/quantized920215634" type="Const" version="opset1">
			<data element_type="i8" shape="16, 16, 3, 3" offset="9240" size="2304" />
			<rt_info>
				<attribute name="fused_names" version="0" value="model.2.m.0.cv2.conv.weight6348316/quantized920215634" />
			</rt_info>
			<output>
				<port id="0" precision="I8">
					<dim>16</dim>
					<dim>16</dim>
					<dim>3</dim>
					<dim>3</dim>
				</port>
			</output>
		</layer>
		<layer id="68" name="model.2.m.0.cv2.conv.weight6348316/quantized/to_f32" type="Convert" version="opset1">
			<data destination_type="f32" />
			<rt_info>
				<attribute name="fused_names" version="0" value="model.2.m.0.cv2.conv.weight6348316/quantized/to_f32" />
			</rt_info>
			<input>
				<port id="0" precision="I8">
					<dim>16</dim>
					<dim>16</dim>
					<dim>3</dim>
					<dim>3</dim>
				</port>
			</input>
			<output>
				<port id="1" precision="FP32">
					<dim>16</dim>
					<dim>16</dim>
					<dim>3</dim>
					<dim>3</dim>
				</port>
			</output>
		</layer>
		<layer id="69" name="/model.2/m.0/cv2/conv/Conv/WithoutBiases/fq_weights_1/scale921015232" type="Const" version="opset1">
			<data element_type="f32" shape="16, 1, 1, 1" offset="11544" size="64" />
			<rt_info>
				<attribute name="fused_names" version="0" value="/model.2/m.0/cv2/conv/Conv/WithoutBiases/fq_weights_1/scale921015232" />
			</rt_info>
			<output>
				<port id="0" precision="FP32">
					<dim>16</dim>
					<dim>1</dim>
					<dim>1</dim>
					<dim>1</dim>
				</port>
			</output>
		</layer>
		<layer id="70" name="/model.2/m.0/cv2/conv/Conv/WithoutBiases/fq_weights_1/mulpiply_by_scale" type="Multiply" version="opset1">
			<data auto_broadcast="numpy" />
			<rt_info>
				<attribute name="fused_names" version="0" value="/model.2/m.0/cv2/conv/Conv/WithoutBiases/fq_weights_1/mulpiply_by_scale" />
			</rt_info>
			<input>
				<port id="0" precision="FP32">
					<dim>16</dim>
					<dim>16</dim>
					<dim>3</dim>
					<dim>3</dim>
				</port>
				<port id="1" precision="FP32">
					<dim>16</dim>
					<dim>1</dim>
					<dim>1</dim>
					<dim>1</dim>
				</port>
			</input>
			<output>
				<port id="2" precision="FP32">
					<dim>16</dim>
					<dim>16</dim>
					<dim>3</dim>
					<dim>3</dim>
				</port>
			</output>
		</layer>
		<layer id="71" name="/model.2/m.0/cv2/conv/Conv/WithoutBiases" type="Convolution" version="opset1">
			<data strides="1, 1" dilations="1, 1" pads_begin="1, 1" pads_end="1, 1" auto_pad="explicit" />
			<rt_info>
				<attribute name="fused_names" version="0" value="/model.2/m.0/cv2/conv/Conv/WithoutBiases" />
			</rt_info>
			<input>
				<port id="0" precision="FP32">
					<dim>1</dim>
					<dim>16</dim>
					<dim>160</dim>
					<dim>160</dim>
				</port>
				<port id="1" precision="FP32">
					<dim>16</dim>
					<dim>16</dim>
					<dim>3</dim>
					<dim>3</dim>
				</port>
			</input>
			<output>
				<port id="2" precision="FP32">
					<dim>1</dim>
					<dim>16</dim>
					<dim>160</dim>
					<dim>160</dim>
				</port>
			</output>
		</layer>
		<layer id="72" name="Reshape_35163614308" type="Const" version="opset1">
			<data element_type="f32" shape="1, 16, 1, 1" offset="11608" size="64" />
			<rt_info>
				<attribute name="fused_names" version="0" value="Reshape_351" />
			</rt_info>
			<output>
				<port id="0" precision="FP32">
					<dim>1</dim>
					<dim>16</dim>
					<dim>1</dim>
					<dim>1</dim>
				</port>
			</output>
		</layer>
		<layer id="73" name="/model.2/m.0/cv2/conv/Conv" type="Add" version="opset1">
			<data auto_broadcast="numpy" />
			<rt_info>
				<attribute name="fused_names" version="0" value="/model.2/m.0/cv2/conv/Conv" />
			</rt_info>
			<input>
				<port id="0" precision="FP32">
					<dim>1</dim>
					<dim>16</dim>
					<dim>160</dim>
					<dim>160</dim>
				</port>
				<port id="1" precision="FP32">
					<dim>1</dim>
					<dim>16</dim>
					<dim>1</dim>
					<dim>1</dim>
				</port>
			</input>
			<output>
				<port id="2" precision="FP32" names="/model.2/m.0/cv2/conv/Conv_output_0">
					<dim>1</dim>
					<dim>16</dim>
					<dim>160</dim>
					<dim>160</dim>
				</port>
			</output>
		</layer>
		<layer id="74" name="/model.2/m.0/cv2/act/Mul" type="Swish" version="opset4">
			<rt_info>
				<attribute name="fused_names" version="0" value="/model.2/m.0/cv2/act/Mul" />
			</rt_info>
			<input>
				<port id="0" precision="FP32">
					<dim>1</dim>
					<dim>16</dim>
					<dim>160</dim>
					<dim>160</dim>
				</port>
			</input>
			<output>
				<port id="1" precision="FP32" names="/model.2/m.0/cv2/act/Mul_output_0">
					<dim>1</dim>
					<dim>16</dim>
					<dim>160</dim>
					<dim>160</dim>
				</port>
			</output>
		</layer>
		<layer id="75" name="3466347014494" type="Const" version="opset1">
			<data element_type="f32" shape="1, 1, 1, 1" offset="11672" size="4" />
			<rt_info>
				<attribute name="fused_names" version="0" value="3466347014494" />
			</rt_info>
			<output>
				<port id="0" precision="FP32">
					<dim>1</dim>
					<dim>1</dim>
					<dim>1</dim>
					<dim>1</dim>
				</port>
			</output>
		</layer>
		<layer id="76" name="3467347114275" type="Const" version="opset1">
			<data element_type="f32" shape="1, 1, 1, 1" offset="11676" size="4" />
			<rt_info>
				<attribute name="fused_names" version="0" value="3467347114275" />
			</rt_info>
			<output>
				<port id="0" precision="FP32">
					<dim>1</dim>
					<dim>1</dim>
					<dim>1</dim>
					<dim>1</dim>
				</port>
			</output>
		</layer>
		<layer id="77" name="3468347215463" type="Const" version="opset1">
			<data element_type="f32" shape="1, 1, 1, 1" offset="11672" size="4" />
			<rt_info>
				<attribute name="fused_names" version="0" value="3468347215463" />
			</rt_info>
			<output>
				<port id="0" precision="FP32">
					<dim>1</dim>
					<dim>1</dim>
					<dim>1</dim>
					<dim>1</dim>
				</port>
			</output>
		</layer>
		<layer id="78" name="3469347314761" type="Const" version="opset1">
			<data element_type="f32" shape="1, 1, 1, 1" offset="11676" size="4" />
			<rt_info>
				<attribute name="fused_names" version="0" value="3469347314761" />
			</rt_info>
			<output>
				<port id="0" precision="FP32">
					<dim>1</dim>
					<dim>1</dim>
					<dim>1</dim>
					<dim>1</dim>
				</port>
			</output>
		</layer>
		<layer id="79" name="/model.2/m.0/Add/fq_input_1" type="FakeQuantize" version="opset1">
			<data levels="256" auto_broadcast="numpy" />
			<rt_info>
				<attribute name="fused_names" version="0" value="/model.2/m.0/Add/fq_input_1" />
			</rt_info>
			<input>
				<port id="0" precision="FP32">
					<dim>1</dim>
					<dim>16</dim>
					<dim>160</dim>
					<dim>160</dim>
				</port>
				<port id="1" precision="FP32">
					<dim>1</dim>
					<dim>1</dim>
					<dim>1</dim>
					<dim>1</dim>
				</port>
				<port id="2" precision="FP32">
					<dim>1</dim>
					<dim>1</dim>
					<dim>1</dim>
					<dim>1</dim>
				</port>
				<port id="3" precision="FP32">
					<dim>1</dim>
					<dim>1</dim>
					<dim>1</dim>
					<dim>1</dim>
				</port>
				<port id="4" precision="FP32">
					<dim>1</dim>
					<dim>1</dim>
					<dim>1</dim>
					<dim>1</dim>
				</port>
			</input>
			<output>
				<port id="5" precision="FP32">
					<dim>1</dim>
					<dim>16</dim>
					<dim>160</dim>
					<dim>160</dim>
				</port>
			</output>
		</layer>
		<layer id="80" name="/model.2/m.0/Add" type="Add" version="opset1">
			<data auto_broadcast="numpy" />
			<rt_info>
				<attribute name="fused_names" version="0" value="/model.2/m.0/Add" />
			</rt_info>
			<input>
				<port id="0" precision="FP32">
					<dim>1</dim>
					<dim>16</dim>
					<dim>160</dim>
					<dim>160</dim>
				</port>
				<port id="1" precision="FP32">
					<dim>1</dim>
					<dim>16</dim>
					<dim>160</dim>
					<dim>160</dim>
				</port>
			</input>
			<output>
				<port id="2" precision="FP32" names="/model.2/m.0/Add_output_0">
					<dim>1</dim>
					<dim>16</dim>
					<dim>160</dim>
					<dim>160</dim>
				</port>
			</output>
		</layer>
		<layer id="81" name="4710471414161" type="Const" version="opset1">
			<data element_type="f32" shape="1, 1, 1, 1" offset="6772" size="4" />
			<rt_info>
				<attribute name="fused_names" version="0" value="4710471414161" />
			</rt_info>
			<output>
				<port id="0" precision="FP32">
					<dim>1</dim>
					<dim>1</dim>
					<dim>1</dim>
					<dim>1</dim>
				</port>
			</output>
		</layer>
		<layer id="82" name="4711471515025" type="Const" version="opset1">
			<data element_type="f32" shape="1, 1, 1, 1" offset="6776" size="4" />
			<rt_info>
				<attribute name="fused_names" version="0" value="4711471515025" />
			</rt_info>
			<output>
				<port id="0" precision="FP32">
					<dim>1</dim>
					<dim>1</dim>
					<dim>1</dim>
					<dim>1</dim>
				</port>
			</output>
		</layer>
		<layer id="83" name="4712471615487" type="Const" version="opset1">
			<data element_type="f32" shape="1, 1, 1, 1" offset="6772" size="4" />
			<rt_info>
				<attribute name="fused_names" version="0" value="4712471615487" />
			</rt_info>
			<output>
				<port id="0" precision="FP32">
					<dim>1</dim>
					<dim>1</dim>
					<dim>1</dim>
					<dim>1</dim>
				</port>
			</output>
		</layer>
		<layer id="84" name="4713471714884" type="Const" version="opset1">
			<data element_type="f32" shape="1, 1, 1, 1" offset="6776" size="4" />
			<rt_info>
				<attribute name="fused_names" version="0" value="4713471714884" />
			</rt_info>
			<output>
				<port id="0" precision="FP32">
					<dim>1</dim>
					<dim>1</dim>
					<dim>1</dim>
					<dim>1</dim>
				</port>
			</output>
		</layer>
		<layer id="85" name="/model.2/Concat/fq_input_2" type="FakeQuantize" version="opset1">
			<data levels="256" auto_broadcast="numpy" />
			<rt_info>
				<attribute name="fused_names" version="0" value="/model.2/Concat/fq_input_2" />
			</rt_info>
			<input>
				<port id="0" precision="FP32">
					<dim>1</dim>
					<dim>16</dim>
					<dim>160</dim>
					<dim>160</dim>
				</port>
				<port id="1" precision="FP32">
					<dim>1</dim>
					<dim>1</dim>
					<dim>1</dim>
					<dim>1</dim>
				</port>
				<port id="2" precision="FP32">
					<dim>1</dim>
					<dim>1</dim>
					<dim>1</dim>
					<dim>1</dim>
				</port>
				<port id="3" precision="FP32">
					<dim>1</dim>
					<dim>1</dim>
					<dim>1</dim>
					<dim>1</dim>
				</port>
				<port id="4" precision="FP32">
					<dim>1</dim>
					<dim>1</dim>
					<dim>1</dim>
					<dim>1</dim>
				</port>
			</input>
			<output>
				<port id="5" precision="FP32">
					<dim>1</dim>
					<dim>16</dim>
					<dim>160</dim>
					<dim>160</dim>
				</port>
			</output>
		</layer>
		<layer id="86" name="/model.2/Concat" type="Concat" version="opset1">
			<data axis="1" />
			<rt_info>
				<attribute name="fused_names" version="0" value="/model.2/Concat" />
			</rt_info>
			<input>
				<port id="0" precision="FP32">
					<dim>1</dim>
					<dim>16</dim>
					<dim>160</dim>
					<dim>160</dim>
				</port>
				<port id="1" precision="FP32">
					<dim>1</dim>
					<dim>16</dim>
					<dim>160</dim>
					<dim>160</dim>
				</port>
				<port id="2" precision="FP32">
					<dim>1</dim>
					<dim>16</dim>
					<dim>160</dim>
					<dim>160</dim>
				</port>
			</input>
			<output>
				<port id="3" precision="FP32" names="/model.2/Concat_output_0">
					<dim>1</dim>
					<dim>48</dim>
					<dim>160</dim>
					<dim>160</dim>
				</port>
			</output>
		</layer>
		<layer id="87" name="model.2.cv2.conv.weight6418318/quantized1085214074" type="Const" version="opset1">
			<data element_type="i8" shape="32, 48, 1, 1" offset="11680" size="1536" />
			<rt_info>
				<attribute name="fused_names" version="0" value="model.2.cv2.conv.weight6418318/quantized1085214074" />
			</rt_info>
			<output>
				<port id="0" precision="I8">
					<dim>32</dim>
					<dim>48</dim>
					<dim>1</dim>
					<dim>1</dim>
				</port>
			</output>
		</layer>
		<layer id="88" name="model.2.cv2.conv.weight6418318/quantized/to_f32" type="Convert" version="opset1">
			<data destination_type="f32" />
			<rt_info>
				<attribute name="fused_names" version="0" value="model.2.cv2.conv.weight6418318/quantized/to_f32" />
			</rt_info>
			<input>
				<port id="0" precision="I8">
					<dim>32</dim>
					<dim>48</dim>
					<dim>1</dim>
					<dim>1</dim>
				</port>
			</input>
			<output>
				<port id="1" precision="FP32">
					<dim>32</dim>
					<dim>48</dim>
					<dim>1</dim>
					<dim>1</dim>
				</port>
			</output>
		</layer>
		<layer id="89" name="/model.2/cv2/conv/Conv/WithoutBiases/fq_weights_1/scale1086014143" type="Const" version="opset1">
			<data element_type="f32" shape="32, 1, 1, 1" offset="13216" size="128" />
			<rt_info>
				<attribute name="fused_names" version="0" value="/model.2/cv2/conv/Conv/WithoutBiases/fq_weights_1/scale1086014143" />
			</rt_info>
			<output>
				<port id="0" precision="FP32">
					<dim>32</dim>
					<dim>1</dim>
					<dim>1</dim>
					<dim>1</dim>
				</port>
			</output>
		</layer>
		<layer id="90" name="/model.2/cv2/conv/Conv/WithoutBiases/fq_weights_1/mulpiply_by_scale" type="Multiply" version="opset1">
			<data auto_broadcast="numpy" />
			<rt_info>
				<attribute name="fused_names" version="0" value="/model.2/cv2/conv/Conv/WithoutBiases/fq_weights_1/mulpiply_by_scale" />
			</rt_info>
			<input>
				<port id="0" precision="FP32">
					<dim>32</dim>
					<dim>48</dim>
					<dim>1</dim>
					<dim>1</dim>
				</port>
				<port id="1" precision="FP32">
					<dim>32</dim>
					<dim>1</dim>
					<dim>1</dim>
					<dim>1</dim>
				</port>
			</input>
			<output>
				<port id="2" precision="FP32">
					<dim>32</dim>
					<dim>48</dim>
					<dim>1</dim>
					<dim>1</dim>
				</port>
			</output>
		</layer>
		<layer id="91" name="/model.2/cv2/conv/Conv/WithoutBiases" type="Convolution" version="opset1">
			<data strides="1, 1" dilations="1, 1" pads_begin="0, 0" pads_end="0, 0" auto_pad="explicit" />
			<rt_info>
				<attribute name="fused_names" version="0" value="/model.2/cv2/conv/Conv/WithoutBiases" />
			</rt_info>
			<input>
				<port id="0" precision="FP32">
					<dim>1</dim>
					<dim>48</dim>
					<dim>160</dim>
					<dim>160</dim>
				</port>
				<port id="1" precision="FP32">
					<dim>32</dim>
					<dim>48</dim>
					<dim>1</dim>
					<dim>1</dim>
				</port>
			</input>
			<output>
				<port id="2" precision="FP32">
					<dim>1</dim>
					<dim>32</dim>
					<dim>160</dim>
					<dim>160</dim>
				</port>
			</output>
		</layer>
		<layer id="92" name="Reshape_40364315619" type="Const" version="opset1">
			<data element_type="f32" shape="1, 32, 1, 1" offset="13344" size="128" />
			<rt_info>
				<attribute name="fused_names" version="0" value="Reshape_403" />
			</rt_info>
			<output>
				<port id="0" precision="FP32">
					<dim>1</dim>
					<dim>32</dim>
					<dim>1</dim>
					<dim>1</dim>
				</port>
			</output>
		</layer>
		<layer id="93" name="/model.2/cv2/conv/Conv" type="Add" version="opset1">
			<data auto_broadcast="numpy" />
			<rt_info>
				<attribute name="fused_names" version="0" value="/model.2/cv2/conv/Conv" />
			</rt_info>
			<input>
				<port id="0" precision="FP32">
					<dim>1</dim>
					<dim>32</dim>
					<dim>160</dim>
					<dim>160</dim>
				</port>
				<port id="1" precision="FP32">
					<dim>1</dim>
					<dim>32</dim>
					<dim>1</dim>
					<dim>1</dim>
				</port>
			</input>
			<output>
				<port id="2" precision="FP32" names="/model.2/cv2/conv/Conv_output_0">
					<dim>1</dim>
					<dim>32</dim>
					<dim>160</dim>
					<dim>160</dim>
				</port>
			</output>
		</layer>
		<layer id="94" name="/model.2/cv2/act/Mul" type="Swish" version="opset4">
			<rt_info>
				<attribute name="fused_names" version="0" value="/model.2/cv2/act/Mul" />
			</rt_info>
			<input>
				<port id="0" precision="FP32">
					<dim>1</dim>
					<dim>32</dim>
					<dim>160</dim>
					<dim>160</dim>
				</port>
			</input>
			<output>
				<port id="1" precision="FP32" names="/model.2/cv2/act/Mul_output_0">
					<dim>1</dim>
					<dim>32</dim>
					<dim>160</dim>
					<dim>160</dim>
				</port>
			</output>
		</layer>
		<layer id="95" name="3516352014767" type="Const" version="opset1">
			<data element_type="f32" shape="1, 1, 1, 1" offset="13472" size="4" />
			<rt_info>
				<attribute name="fused_names" version="0" value="3516352014767" />
			</rt_info>
			<output>
				<port id="0" precision="FP32">
					<dim>1</dim>
					<dim>1</dim>
					<dim>1</dim>
					<dim>1</dim>
				</port>
			</output>
		</layer>
		<layer id="96" name="3517352114332" type="Const" version="opset1">
			<data element_type="f32" shape="1, 1, 1, 1" offset="13476" size="4" />
			<rt_info>
				<attribute name="fused_names" version="0" value="3517352114332" />
			</rt_info>
			<output>
				<port id="0" precision="FP32">
					<dim>1</dim>
					<dim>1</dim>
					<dim>1</dim>
					<dim>1</dim>
				</port>
			</output>
		</layer>
		<layer id="97" name="3518352215724" type="Const" version="opset1">
			<data element_type="f32" shape="1, 1, 1, 1" offset="13472" size="4" />
			<rt_info>
				<attribute name="fused_names" version="0" value="3518352215724" />
			</rt_info>
			<output>
				<port id="0" precision="FP32">
					<dim>1</dim>
					<dim>1</dim>
					<dim>1</dim>
					<dim>1</dim>
				</port>
			</output>
		</layer>
		<layer id="98" name="3519352314575" type="Const" version="opset1">
			<data element_type="f32" shape="1, 1, 1, 1" offset="13476" size="4" />
			<rt_info>
				<attribute name="fused_names" version="0" value="3519352314575" />
			</rt_info>
			<output>
				<port id="0" precision="FP32">
					<dim>1</dim>
					<dim>1</dim>
					<dim>1</dim>
					<dim>1</dim>
				</port>
			</output>
		</layer>
		<layer id="99" name="/model.3/conv/Conv/WithoutBiases/fq_input_0" type="FakeQuantize" version="opset1">
			<data levels="256" auto_broadcast="numpy" />
			<rt_info>
				<attribute name="fused_names" version="0" value="/model.3/conv/Conv/WithoutBiases/fq_input_0" />
			</rt_info>
			<input>
				<port id="0" precision="FP32">
					<dim>1</dim>
					<dim>32</dim>
					<dim>160</dim>
					<dim>160</dim>
				</port>
				<port id="1" precision="FP32">
					<dim>1</dim>
					<dim>1</dim>
					<dim>1</dim>
					<dim>1</dim>
				</port>
				<port id="2" precision="FP32">
					<dim>1</dim>
					<dim>1</dim>
					<dim>1</dim>
					<dim>1</dim>
				</port>
				<port id="3" precision="FP32">
					<dim>1</dim>
					<dim>1</dim>
					<dim>1</dim>
					<dim>1</dim>
				</port>
				<port id="4" precision="FP32">
					<dim>1</dim>
					<dim>1</dim>
					<dim>1</dim>
					<dim>1</dim>
				</port>
			</input>
			<output>
				<port id="5" precision="FP32">
					<dim>1</dim>
					<dim>32</dim>
					<dim>160</dim>
					<dim>160</dim>
				</port>
			</output>
		</layer>
		<layer id="100" name="model.3.conv.weight6468320/quantized1034214581" type="Const" version="opset1">
			<data element_type="i8" shape="64, 32, 3, 3" offset="13480" size="18432" />
			<rt_info>
				<attribute name="fused_names" version="0" value="model.3.conv.weight6468320/quantized1034214581" />
			</rt_info>
			<output>
				<port id="0" precision="I8">
					<dim>64</dim>
					<dim>32</dim>
					<dim>3</dim>
					<dim>3</dim>
				</port>
			</output>
		</layer>
		<layer id="101" name="model.3.conv.weight6468320/quantized/to_f32" type="Convert" version="opset1">
			<data destination_type="f32" />
			<rt_info>
				<attribute name="fused_names" version="0" value="model.3.conv.weight6468320/quantized/to_f32" />
			</rt_info>
			<input>
				<port id="0" precision="I8">
					<dim>64</dim>
					<dim>32</dim>
					<dim>3</dim>
					<dim>3</dim>
				</port>
			</input>
			<output>
				<port id="1" precision="FP32">
					<dim>64</dim>
					<dim>32</dim>
					<dim>3</dim>
					<dim>3</dim>
				</port>
			</output>
		</layer>
		<layer id="102" name="/model.3/conv/Conv/WithoutBiases/fq_weights_1/scale1035014398" type="Const" version="opset1">
			<data element_type="f32" shape="64, 1, 1, 1" offset="31912" size="256" />
			<rt_info>
				<attribute name="fused_names" version="0" value="/model.3/conv/Conv/WithoutBiases/fq_weights_1/scale1035014398" />
			</rt_info>
			<output>
				<port id="0" precision="FP32">
					<dim>64</dim>
					<dim>1</dim>
					<dim>1</dim>
					<dim>1</dim>
				</port>
			</output>
		</layer>
		<layer id="103" name="/model.3/conv/Conv/WithoutBiases/fq_weights_1/mulpiply_by_scale" type="Multiply" version="opset1">
			<data auto_broadcast="numpy" />
			<rt_info>
				<attribute name="fused_names" version="0" value="/model.3/conv/Conv/WithoutBiases/fq_weights_1/mulpiply_by_scale" />
			</rt_info>
			<input>
				<port id="0" precision="FP32">
					<dim>64</dim>
					<dim>32</dim>
					<dim>3</dim>
					<dim>3</dim>
				</port>
				<port id="1" precision="FP32">
					<dim>64</dim>
					<dim>1</dim>
					<dim>1</dim>
					<dim>1</dim>
				</port>
			</input>
			<output>
				<port id="2" precision="FP32">
					<dim>64</dim>
					<dim>32</dim>
					<dim>3</dim>
					<dim>3</dim>
				</port>
			</output>
		</layer>
		<layer id="104" name="/model.3/conv/Conv/WithoutBiases" type="Convolution" version="opset1">
			<data strides="2, 2" dilations="1, 1" pads_begin="1, 1" pads_end="1, 1" auto_pad="explicit" />
			<rt_info>
				<attribute name="fused_names" version="0" value="/model.3/conv/Conv/WithoutBiases" />
			</rt_info>
			<input>
				<port id="0" precision="FP32">
					<dim>1</dim>
					<dim>32</dim>
					<dim>160</dim>
					<dim>160</dim>
				</port>
				<port id="1" precision="FP32">
					<dim>64</dim>
					<dim>32</dim>
					<dim>3</dim>
					<dim>3</dim>
				</port>
			</input>
			<output>
				<port id="2" precision="FP32">
					<dim>1</dim>
					<dim>64</dim>
					<dim>80</dim>
					<dim>80</dim>
				</port>
			</output>
		</layer>
		<layer id="105" name="Reshape_45364815022" type="Const" version="opset1">
			<data element_type="f32" shape="1, 64, 1, 1" offset="32168" size="256" />
			<rt_info>
				<attribute name="fused_names" version="0" value="Reshape_453" />
			</rt_info>
			<output>
				<port id="0" precision="FP32">
					<dim>1</dim>
					<dim>64</dim>
					<dim>1</dim>
					<dim>1</dim>
				</port>
			</output>
		</layer>
		<layer id="106" name="/model.3/conv/Conv" type="Add" version="opset1">
			<data auto_broadcast="numpy" />
			<rt_info>
				<attribute name="fused_names" version="0" value="/model.3/conv/Conv" />
			</rt_info>
			<input>
				<port id="0" precision="FP32">
					<dim>1</dim>
					<dim>64</dim>
					<dim>80</dim>
					<dim>80</dim>
				</port>
				<port id="1" precision="FP32">
					<dim>1</dim>
					<dim>64</dim>
					<dim>1</dim>
					<dim>1</dim>
				</port>
			</input>
			<output>
				<port id="2" precision="FP32" names="/model.3/conv/Conv_output_0">
					<dim>1</dim>
					<dim>64</dim>
					<dim>80</dim>
					<dim>80</dim>
				</port>
			</output>
		</layer>
		<layer id="107" name="/model.3/act/Mul" type="Swish" version="opset4">
			<rt_info>
				<attribute name="fused_names" version="0" value="/model.3/act/Mul" />
			</rt_info>
			<input>
				<port id="0" precision="FP32">
					<dim>1</dim>
					<dim>64</dim>
					<dim>80</dim>
					<dim>80</dim>
				</port>
			</input>
			<output>
				<port id="1" precision="FP32" names="/model.3/act/Mul_output_0">
					<dim>1</dim>
					<dim>64</dim>
					<dim>80</dim>
					<dim>80</dim>
				</port>
			</output>
		</layer>
		<layer id="108" name="2636264015499" type="Const" version="opset1">
			<data element_type="f32" shape="1, 1, 1, 1" offset="5484" size="4" />
			<rt_info>
				<attribute name="fused_names" version="0" value="2636264015499" />
			</rt_info>
			<output>
				<port id="0" precision="FP32">
					<dim>1</dim>
					<dim>1</dim>
					<dim>1</dim>
					<dim>1</dim>
				</port>
			</output>
		</layer>
		<layer id="109" name="2637264115346" type="Const" version="opset1">
			<data element_type="f32" shape="1, 1, 1, 1" offset="32424" size="4" />
			<rt_info>
				<attribute name="fused_names" version="0" value="2637264115346" />
			</rt_info>
			<output>
				<port id="0" precision="FP32">
					<dim>1</dim>
					<dim>1</dim>
					<dim>1</dim>
					<dim>1</dim>
				</port>
			</output>
		</layer>
		<layer id="110" name="2638264214179" type="Const" version="opset1">
			<data element_type="f32" shape="1, 1, 1, 1" offset="5484" size="4" />
			<rt_info>
				<attribute name="fused_names" version="0" value="2638264214179" />
			</rt_info>
			<output>
				<port id="0" precision="FP32">
					<dim>1</dim>
					<dim>1</dim>
					<dim>1</dim>
					<dim>1</dim>
				</port>
			</output>
		</layer>
		<layer id="111" name="2639264315667" type="Const" version="opset1">
			<data element_type="f32" shape="1, 1, 1, 1" offset="32424" size="4" />
			<rt_info>
				<attribute name="fused_names" version="0" value="2639264315667" />
			</rt_info>
			<output>
				<port id="0" precision="FP32">
					<dim>1</dim>
					<dim>1</dim>
					<dim>1</dim>
					<dim>1</dim>
				</port>
			</output>
		</layer>
		<layer id="112" name="/model.4/cv1/conv/Conv/WithoutBiases/fq_input_0" type="FakeQuantize" version="opset1">
			<data levels="256" auto_broadcast="numpy" />
			<rt_info>
				<attribute name="fused_names" version="0" value="/model.4/cv1/conv/Conv/WithoutBiases/fq_input_0" />
			</rt_info>
			<input>
				<port id="0" precision="FP32">
					<dim>1</dim>
					<dim>64</dim>
					<dim>80</dim>
					<dim>80</dim>
				</port>
				<port id="1" precision="FP32">
					<dim>1</dim>
					<dim>1</dim>
					<dim>1</dim>
					<dim>1</dim>
				</port>
				<port id="2" precision="FP32">
					<dim>1</dim>
					<dim>1</dim>
					<dim>1</dim>
					<dim>1</dim>
				</port>
				<port id="3" precision="FP32">
					<dim>1</dim>
					<dim>1</dim>
					<dim>1</dim>
					<dim>1</dim>
				</port>
				<port id="4" precision="FP32">
					<dim>1</dim>
					<dim>1</dim>
					<dim>1</dim>
					<dim>1</dim>
				</port>
			</input>
			<output>
				<port id="5" precision="FP32">
					<dim>1</dim>
					<dim>64</dim>
					<dim>80</dim>
					<dim>80</dim>
				</port>
			</output>
		</layer>
		<layer id="113" name="model.4.cv1.conv.weight6518322/quantized998215751" type="Const" version="opset1">
			<data element_type="i8" shape="64, 64, 1, 1" offset="32428" size="4096" />
			<rt_info>
				<attribute name="fused_names" version="0" value="model.4.cv1.conv.weight6518322/quantized998215751" />
			</rt_info>
			<output>
				<port id="0" precision="I8">
					<dim>64</dim>
					<dim>64</dim>
					<dim>1</dim>
					<dim>1</dim>
				</port>
			</output>
		</layer>
		<layer id="114" name="model.4.cv1.conv.weight6518322/quantized/to_f32" type="Convert" version="opset1">
			<data destination_type="f32" />
			<rt_info>
				<attribute name="fused_names" version="0" value="model.4.cv1.conv.weight6518322/quantized/to_f32" />
			</rt_info>
			<input>
				<port id="0" precision="I8">
					<dim>64</dim>
					<dim>64</dim>
					<dim>1</dim>
					<dim>1</dim>
				</port>
			</input>
			<output>
				<port id="1" precision="FP32">
					<dim>64</dim>
					<dim>64</dim>
					<dim>1</dim>
					<dim>1</dim>
				</port>
			</output>
		</layer>
		<layer id="115" name="/model.4/cv1/conv/Conv/WithoutBiases/fq_weights_1/scale999014551" type="Const" version="opset1">
			<data element_type="f32" shape="64, 1, 1, 1" offset="36524" size="256" />
			<rt_info>
				<attribute name="fused_names" version="0" value="/model.4/cv1/conv/Conv/WithoutBiases/fq_weights_1/scale999014551" />
			</rt_info>
			<output>
				<port id="0" precision="FP32">
					<dim>64</dim>
					<dim>1</dim>
					<dim>1</dim>
					<dim>1</dim>
				</port>
			</output>
		</layer>
		<layer id="116" name="/model.4/cv1/conv/Conv/WithoutBiases/fq_weights_1/mulpiply_by_scale" type="Multiply" version="opset1">
			<data auto_broadcast="numpy" />
			<rt_info>
				<attribute name="fused_names" version="0" value="/model.4/cv1/conv/Conv/WithoutBiases/fq_weights_1/mulpiply_by_scale" />
			</rt_info>
			<input>
				<port id="0" precision="FP32">
					<dim>64</dim>
					<dim>64</dim>
					<dim>1</dim>
					<dim>1</dim>
				</port>
				<port id="1" precision="FP32">
					<dim>64</dim>
					<dim>1</dim>
					<dim>1</dim>
					<dim>1</dim>
				</port>
			</input>
			<output>
				<port id="2" precision="FP32">
					<dim>64</dim>
					<dim>64</dim>
					<dim>1</dim>
					<dim>1</dim>
				</port>
			</output>
		</layer>
		<layer id="117" name="/model.4/cv1/conv/Conv/WithoutBiases" type="Convolution" version="opset1">
			<data strides="1, 1" dilations="1, 1" pads_begin="0, 0" pads_end="0, 0" auto_pad="explicit" />
			<rt_info>
				<attribute name="fused_names" version="0" value="/model.4/cv1/conv/Conv/WithoutBiases" />
			</rt_info>
			<input>
				<port id="0" precision="FP32">
					<dim>1</dim>
					<dim>64</dim>
					<dim>80</dim>
					<dim>80</dim>
				</port>
				<port id="1" precision="FP32">
					<dim>64</dim>
					<dim>64</dim>
					<dim>1</dim>
					<dim>1</dim>
				</port>
			</input>
			<output>
				<port id="2" precision="FP32">
					<dim>1</dim>
					<dim>64</dim>
					<dim>80</dim>
					<dim>80</dim>
				</port>
			</output>
		</layer>
		<layer id="118" name="Reshape_50365314149" type="Const" version="opset1">
			<data element_type="f32" shape="1, 64, 1, 1" offset="36780" size="256" />
			<rt_info>
				<attribute name="fused_names" version="0" value="Reshape_503" />
			</rt_info>
			<output>
				<port id="0" precision="FP32">
					<dim>1</dim>
					<dim>64</dim>
					<dim>1</dim>
					<dim>1</dim>
				</port>
			</output>
		</layer>
		<layer id="119" name="/model.4/cv1/conv/Conv" type="Add" version="opset1">
			<data auto_broadcast="numpy" />
			<rt_info>
				<attribute name="fused_names" version="0" value="/model.4/cv1/conv/Conv" />
			</rt_info>
			<input>
				<port id="0" precision="FP32">
					<dim>1</dim>
					<dim>64</dim>
					<dim>80</dim>
					<dim>80</dim>
				</port>
				<port id="1" precision="FP32">
					<dim>1</dim>
					<dim>64</dim>
					<dim>1</dim>
					<dim>1</dim>
				</port>
			</input>
			<output>
				<port id="2" precision="FP32" names="/model.4/cv1/conv/Conv_output_0">
					<dim>1</dim>
					<dim>64</dim>
					<dim>80</dim>
					<dim>80</dim>
				</port>
			</output>
		</layer>
		<layer id="120" name="/model.4/cv1/act/Mul" type="Swish" version="opset4">
			<rt_info>
				<attribute name="fused_names" version="0" value="/model.4/cv1/act/Mul" />
			</rt_info>
			<input>
				<port id="0" precision="FP32">
					<dim>1</dim>
					<dim>64</dim>
					<dim>80</dim>
					<dim>80</dim>
				</port>
			</input>
			<output>
				<port id="1" precision="FP32" names="/model.4/cv1/act/Mul_output_0">
					<dim>1</dim>
					<dim>64</dim>
					<dim>80</dim>
					<dim>80</dim>
				</port>
			</output>
		</layer>
		<layer id="121" name="4880488415001" type="Const" version="opset1">
			<data element_type="f32" shape="1, 1, 1, 1" offset="37036" size="4" />
			<rt_info>
				<attribute name="fused_names" version="0" value="4880488415001" />
			</rt_info>
			<output>
				<port id="0" precision="FP32">
					<dim>1</dim>
					<dim>1</dim>
					<dim>1</dim>
					<dim>1</dim>
				</port>
			</output>
		</layer>
		<layer id="122" name="4881488514659" type="Const" version="opset1">
			<data element_type="f32" shape="1, 1, 1, 1" offset="37040" size="4" />
			<rt_info>
				<attribute name="fused_names" version="0" value="4881488514659" />
			</rt_info>
			<output>
				<port id="0" precision="FP32">
					<dim>1</dim>
					<dim>1</dim>
					<dim>1</dim>
					<dim>1</dim>
				</port>
			</output>
		</layer>
		<layer id="123" name="4882488614836" type="Const" version="opset1">
			<data element_type="f32" shape="1, 1, 1, 1" offset="37036" size="4" />
			<rt_info>
				<attribute name="fused_names" version="0" value="4882488614836" />
			</rt_info>
			<output>
				<port id="0" precision="FP32">
					<dim>1</dim>
					<dim>1</dim>
					<dim>1</dim>
					<dim>1</dim>
				</port>
			</output>
		</layer>
		<layer id="124" name="4883488715109" type="Const" version="opset1">
			<data element_type="f32" shape="1, 1, 1, 1" offset="37040" size="4" />
			<rt_info>
				<attribute name="fused_names" version="0" value="4883488715109" />
			</rt_info>
			<output>
				<port id="0" precision="FP32">
					<dim>1</dim>
					<dim>1</dim>
					<dim>1</dim>
					<dim>1</dim>
				</port>
			</output>
		</layer>
		<layer id="125" name="/model.4/Split/fq_input_0" type="FakeQuantize" version="opset1">
			<data levels="256" auto_broadcast="numpy" />
			<rt_info>
				<attribute name="fused_names" version="0" value="/model.4/Split/fq_input_0" />
			</rt_info>
			<input>
				<port id="0" precision="FP32">
					<dim>1</dim>
					<dim>64</dim>
					<dim>80</dim>
					<dim>80</dim>
				</port>
				<port id="1" precision="FP32">
					<dim>1</dim>
					<dim>1</dim>
					<dim>1</dim>
					<dim>1</dim>
				</port>
				<port id="2" precision="FP32">
					<dim>1</dim>
					<dim>1</dim>
					<dim>1</dim>
					<dim>1</dim>
				</port>
				<port id="3" precision="FP32">
					<dim>1</dim>
					<dim>1</dim>
					<dim>1</dim>
					<dim>1</dim>
				</port>
				<port id="4" precision="FP32">
					<dim>1</dim>
					<dim>1</dim>
					<dim>1</dim>
					<dim>1</dim>
				</port>
			</input>
			<output>
				<port id="5" precision="FP32">
					<dim>1</dim>
					<dim>64</dim>
					<dim>80</dim>
					<dim>80</dim>
				</port>
			</output>
		</layer>
		<layer id="126" name="Constant_53465615772" type="Const" version="opset1">
			<data element_type="i64" shape="" offset="6780" size="8" />
			<rt_info>
				<attribute name="fused_names" version="0" value="Constant_534" />
			</rt_info>
			<output>
				<port id="0" precision="I64" />
			</output>
		</layer>
		<layer id="127" name="Constant_2865714515" type="Const" version="opset1">
			<data element_type="i64" shape="2" offset="37044" size="16" />
			<rt_info>
				<attribute name="fused_names" version="0" value="Constant_28" />
			</rt_info>
			<output>
				<port id="0" precision="I64" names="onnx::Split_161">
					<dim>2</dim>
				</port>
			</output>
		</layer>
		<layer id="128" name="/model.4/Split" type="VariadicSplit" version="opset1">
			<rt_info>
				<attribute name="fused_names" version="0" value="/model.4/Split" />
			</rt_info>
			<input>
				<port id="0" precision="FP32">
					<dim>1</dim>
					<dim>64</dim>
					<dim>80</dim>
					<dim>80</dim>
				</port>
				<port id="1" precision="I64" />
				<port id="2" precision="I64">
					<dim>2</dim>
				</port>
			</input>
			<output>
				<port id="3" precision="FP32" names="/model.4/Split_output_0">
					<dim>1</dim>
					<dim>32</dim>
					<dim>80</dim>
					<dim>80</dim>
				</port>
				<port id="4" precision="FP32" names="/model.4/Split_output_1">
					<dim>1</dim>
					<dim>32</dim>
					<dim>80</dim>
					<dim>80</dim>
				</port>
			</output>
		</layer>
		<layer id="129" name="model.4.m.0.cv1.conv.weight6608326/quantized1001214710" type="Const" version="opset1">
			<data element_type="i8" shape="32, 32, 3, 3" offset="37060" size="9216" />
			<rt_info>
				<attribute name="fused_names" version="0" value="model.4.m.0.cv1.conv.weight6608326/quantized1001214710" />
			</rt_info>
			<output>
				<port id="0" precision="I8">
					<dim>32</dim>
					<dim>32</dim>
					<dim>3</dim>
					<dim>3</dim>
				</port>
			</output>
		</layer>
		<layer id="130" name="model.4.m.0.cv1.conv.weight6608326/quantized/to_f32" type="Convert" version="opset1">
			<data destination_type="f32" />
			<rt_info>
				<attribute name="fused_names" version="0" value="model.4.m.0.cv1.conv.weight6608326/quantized/to_f32" />
			</rt_info>
			<input>
				<port id="0" precision="I8">
					<dim>32</dim>
					<dim>32</dim>
					<dim>3</dim>
					<dim>3</dim>
				</port>
			</input>
			<output>
				<port id="1" precision="FP32">
					<dim>32</dim>
					<dim>32</dim>
					<dim>3</dim>
					<dim>3</dim>
				</port>
			</output>
		</layer>
		<layer id="131" name="/model.4/m.0/cv1/conv/Conv/WithoutBiases/fq_weights_1/scale1002014701" type="Const" version="opset1">
			<data element_type="f32" shape="32, 1, 1, 1" offset="46276" size="128" />
			<rt_info>
				<attribute name="fused_names" version="0" value="/model.4/m.0/cv1/conv/Conv/WithoutBiases/fq_weights_1/scale1002014701" />
			</rt_info>
			<output>
				<port id="0" precision="FP32">
					<dim>32</dim>
					<dim>1</dim>
					<dim>1</dim>
					<dim>1</dim>
				</port>
			</output>
		</layer>
		<layer id="132" name="/model.4/m.0/cv1/conv/Conv/WithoutBiases/fq_weights_1/mulpiply_by_scale" type="Multiply" version="opset1">
			<data auto_broadcast="numpy" />
			<rt_info>
				<attribute name="fused_names" version="0" value="/model.4/m.0/cv1/conv/Conv/WithoutBiases/fq_weights_1/mulpiply_by_scale" />
			</rt_info>
			<input>
				<port id="0" precision="FP32">
					<dim>32</dim>
					<dim>32</dim>
					<dim>3</dim>
					<dim>3</dim>
				</port>
				<port id="1" precision="FP32">
					<dim>32</dim>
					<dim>1</dim>
					<dim>1</dim>
					<dim>1</dim>
				</port>
			</input>
			<output>
				<port id="2" precision="FP32">
					<dim>32</dim>
					<dim>32</dim>
					<dim>3</dim>
					<dim>3</dim>
				</port>
			</output>
		</layer>
		<layer id="133" name="/model.4/m.0/cv1/conv/Conv/WithoutBiases" type="Convolution" version="opset1">
			<data strides="1, 1" dilations="1, 1" pads_begin="1, 1" pads_end="1, 1" auto_pad="explicit" />
			<rt_info>
				<attribute name="fused_names" version="0" value="/model.4/m.0/cv1/conv/Conv/WithoutBiases" />
			</rt_info>
			<input>
				<port id="0" precision="FP32">
					<dim>1</dim>
					<dim>32</dim>
					<dim>80</dim>
					<dim>80</dim>
				</port>
				<port id="1" precision="FP32">
					<dim>32</dim>
					<dim>32</dim>
					<dim>3</dim>
					<dim>3</dim>
				</port>
			</input>
			<output>
				<port id="2" precision="FP32">
					<dim>1</dim>
					<dim>32</dim>
					<dim>80</dim>
					<dim>80</dim>
				</port>
			</output>
		</layer>
		<layer id="134" name="Reshape_55666214359" type="Const" version="opset1">
			<data element_type="f32" shape="1, 32, 1, 1" offset="46404" size="128" />
			<rt_info>
				<attribute name="fused_names" version="0" value="Reshape_556" />
			</rt_info>
			<output>
				<port id="0" precision="FP32">
					<dim>1</dim>
					<dim>32</dim>
					<dim>1</dim>
					<dim>1</dim>
				</port>
			</output>
		</layer>
		<layer id="135" name="/model.4/m.0/cv1/conv/Conv" type="Add" version="opset1">
			<data auto_broadcast="numpy" />
			<rt_info>
				<attribute name="fused_names" version="0" value="/model.4/m.0/cv1/conv/Conv" />
			</rt_info>
			<input>
				<port id="0" precision="FP32">
					<dim>1</dim>
					<dim>32</dim>
					<dim>80</dim>
					<dim>80</dim>
				</port>
				<port id="1" precision="FP32">
					<dim>1</dim>
					<dim>32</dim>
					<dim>1</dim>
					<dim>1</dim>
				</port>
			</input>
			<output>
				<port id="2" precision="FP32" names="/model.4/m.0/cv1/conv/Conv_output_0">
					<dim>1</dim>
					<dim>32</dim>
					<dim>80</dim>
					<dim>80</dim>
				</port>
			</output>
		</layer>
		<layer id="136" name="/model.4/m.0/cv1/act/Mul" type="Swish" version="opset4">
			<rt_info>
				<attribute name="fused_names" version="0" value="/model.4/m.0/cv1/act/Mul" />
			</rt_info>
			<input>
				<port id="0" precision="FP32">
					<dim>1</dim>
					<dim>32</dim>
					<dim>80</dim>
					<dim>80</dim>
				</port>
			</input>
			<output>
				<port id="1" precision="FP32" names="/model.4/m.0/cv1/act/Mul_output_0">
					<dim>1</dim>
					<dim>32</dim>
					<dim>80</dim>
					<dim>80</dim>
				</port>
			</output>
		</layer>
		<layer id="137" name="2596260014557" type="Const" version="opset1">
			<data element_type="f32" shape="1, 1, 1, 1" offset="46532" size="4" />
			<rt_info>
				<attribute name="fused_names" version="0" value="2596260014557" />
			</rt_info>
			<output>
				<port id="0" precision="FP32">
					<dim>1</dim>
					<dim>1</dim>
					<dim>1</dim>
					<dim>1</dim>
				</port>
			</output>
		</layer>
		<layer id="138" name="2597260114977" type="Const" version="opset1">
			<data element_type="f32" shape="1, 1, 1, 1" offset="46536" size="4" />
			<rt_info>
				<attribute name="fused_names" version="0" value="2597260114977" />
			</rt_info>
			<output>
				<port id="0" precision="FP32">
					<dim>1</dim>
					<dim>1</dim>
					<dim>1</dim>
					<dim>1</dim>
				</port>
			</output>
		</layer>
		<layer id="139" name="2598260215058" type="Const" version="opset1">
			<data element_type="f32" shape="1, 1, 1, 1" offset="46532" size="4" />
			<rt_info>
				<attribute name="fused_names" version="0" value="2598260215058" />
			</rt_info>
			<output>
				<port id="0" precision="FP32">
					<dim>1</dim>
					<dim>1</dim>
					<dim>1</dim>
					<dim>1</dim>
				</port>
			</output>
		</layer>
		<layer id="140" name="2599260314245" type="Const" version="opset1">
			<data element_type="f32" shape="1, 1, 1, 1" offset="46536" size="4" />
			<rt_info>
				<attribute name="fused_names" version="0" value="2599260314245" />
			</rt_info>
			<output>
				<port id="0" precision="FP32">
					<dim>1</dim>
					<dim>1</dim>
					<dim>1</dim>
					<dim>1</dim>
				</port>
			</output>
		</layer>
		<layer id="141" name="/model.4/m.0/cv2/conv/Conv/WithoutBiases/fq_input_0" type="FakeQuantize" version="opset1">
			<data levels="256" auto_broadcast="numpy" />
			<rt_info>
				<attribute name="fused_names" version="0" value="/model.4/m.0/cv2/conv/Conv/WithoutBiases/fq_input_0" />
			</rt_info>
			<input>
				<port id="0" precision="FP32">
					<dim>1</dim>
					<dim>32</dim>
					<dim>80</dim>
					<dim>80</dim>
				</port>
				<port id="1" precision="FP32">
					<dim>1</dim>
					<dim>1</dim>
					<dim>1</dim>
					<dim>1</dim>
				</port>
				<port id="2" precision="FP32">
					<dim>1</dim>
					<dim>1</dim>
					<dim>1</dim>
					<dim>1</dim>
				</port>
				<port id="3" precision="FP32">
					<dim>1</dim>
					<dim>1</dim>
					<dim>1</dim>
					<dim>1</dim>
				</port>
				<port id="4" precision="FP32">
					<dim>1</dim>
					<dim>1</dim>
					<dim>1</dim>
					<dim>1</dim>
				</port>
			</input>
			<output>
				<port id="5" precision="FP32">
					<dim>1</dim>
					<dim>32</dim>
					<dim>80</dim>
					<dim>80</dim>
				</port>
			</output>
		</layer>
		<layer id="142" name="model.4.m.0.cv2.conv.weight6658328/quantized1004214473" type="Const" version="opset1">
			<data element_type="i8" shape="32, 32, 3, 3" offset="46540" size="9216" />
			<rt_info>
				<attribute name="fused_names" version="0" value="model.4.m.0.cv2.conv.weight6658328/quantized1004214473" />
			</rt_info>
			<output>
				<port id="0" precision="I8">
					<dim>32</dim>
					<dim>32</dim>
					<dim>3</dim>
					<dim>3</dim>
				</port>
			</output>
		</layer>
		<layer id="143" name="model.4.m.0.cv2.conv.weight6658328/quantized/to_f32" type="Convert" version="opset1">
			<data destination_type="f32" />
			<rt_info>
				<attribute name="fused_names" version="0" value="model.4.m.0.cv2.conv.weight6658328/quantized/to_f32" />
			</rt_info>
			<input>
				<port id="0" precision="I8">
					<dim>32</dim>
					<dim>32</dim>
					<dim>3</dim>
					<dim>3</dim>
				</port>
			</input>
			<output>
				<port id="1" precision="FP32">
					<dim>32</dim>
					<dim>32</dim>
					<dim>3</dim>
					<dim>3</dim>
				</port>
			</output>
		</layer>
		<layer id="144" name="/model.4/m.0/cv2/conv/Conv/WithoutBiases/fq_weights_1/scale1005014824" type="Const" version="opset1">
			<data element_type="f32" shape="32, 1, 1, 1" offset="55756" size="128" />
			<rt_info>
				<attribute name="fused_names" version="0" value="/model.4/m.0/cv2/conv/Conv/WithoutBiases/fq_weights_1/scale1005014824" />
			</rt_info>
			<output>
				<port id="0" precision="FP32">
					<dim>32</dim>
					<dim>1</dim>
					<dim>1</dim>
					<dim>1</dim>
				</port>
			</output>
		</layer>
		<layer id="145" name="/model.4/m.0/cv2/conv/Conv/WithoutBiases/fq_weights_1/mulpiply_by_scale" type="Multiply" version="opset1">
			<data auto_broadcast="numpy" />
			<rt_info>
				<attribute name="fused_names" version="0" value="/model.4/m.0/cv2/conv/Conv/WithoutBiases/fq_weights_1/mulpiply_by_scale" />
			</rt_info>
			<input>
				<port id="0" precision="FP32">
					<dim>32</dim>
					<dim>32</dim>
					<dim>3</dim>
					<dim>3</dim>
				</port>
				<port id="1" precision="FP32">
					<dim>32</dim>
					<dim>1</dim>
					<dim>1</dim>
					<dim>1</dim>
				</port>
			</input>
			<output>
				<port id="2" precision="FP32">
					<dim>32</dim>
					<dim>32</dim>
					<dim>3</dim>
					<dim>3</dim>
				</port>
			</output>
		</layer>
		<layer id="146" name="/model.4/m.0/cv2/conv/Conv/WithoutBiases" type="Convolution" version="opset1">
			<data strides="1, 1" dilations="1, 1" pads_begin="1, 1" pads_end="1, 1" auto_pad="explicit" />
			<rt_info>
				<attribute name="fused_names" version="0" value="/model.4/m.0/cv2/conv/Conv/WithoutBiases" />
			</rt_info>
			<input>
				<port id="0" precision="FP32">
					<dim>1</dim>
					<dim>32</dim>
					<dim>80</dim>
					<dim>80</dim>
				</port>
				<port id="1" precision="FP32">
					<dim>32</dim>
					<dim>32</dim>
					<dim>3</dim>
					<dim>3</dim>
				</port>
			</input>
			<output>
				<port id="2" precision="FP32">
					<dim>1</dim>
					<dim>32</dim>
					<dim>80</dim>
					<dim>80</dim>
				</port>
			</output>
		</layer>
		<layer id="147" name="Reshape_60666714518" type="Const" version="opset1">
			<data element_type="f32" shape="1, 32, 1, 1" offset="55884" size="128" />
			<rt_info>
				<attribute name="fused_names" version="0" value="Reshape_606" />
			</rt_info>
			<output>
				<port id="0" precision="FP32">
					<dim>1</dim>
					<dim>32</dim>
					<dim>1</dim>
					<dim>1</dim>
				</port>
			</output>
		</layer>
		<layer id="148" name="/model.4/m.0/cv2/conv/Conv" type="Add" version="opset1">
			<data auto_broadcast="numpy" />
			<rt_info>
				<attribute name="fused_names" version="0" value="/model.4/m.0/cv2/conv/Conv" />
			</rt_info>
			<input>
				<port id="0" precision="FP32">
					<dim>1</dim>
					<dim>32</dim>
					<dim>80</dim>
					<dim>80</dim>
				</port>
				<port id="1" precision="FP32">
					<dim>1</dim>
					<dim>32</dim>
					<dim>1</dim>
					<dim>1</dim>
				</port>
			</input>
			<output>
				<port id="2" precision="FP32" names="/model.4/m.0/cv2/conv/Conv_output_0">
					<dim>1</dim>
					<dim>32</dim>
					<dim>80</dim>
					<dim>80</dim>
				</port>
			</output>
		</layer>
		<layer id="149" name="/model.4/m.0/cv2/act/Mul" type="Swish" version="opset4">
			<rt_info>
				<attribute name="fused_names" version="0" value="/model.4/m.0/cv2/act/Mul" />
			</rt_info>
			<input>
				<port id="0" precision="FP32">
					<dim>1</dim>
					<dim>32</dim>
					<dim>80</dim>
					<dim>80</dim>
				</port>
			</input>
			<output>
				<port id="1" precision="FP32" names="/model.4/m.0/cv2/act/Mul_output_0">
					<dim>1</dim>
					<dim>32</dim>
					<dim>80</dim>
					<dim>80</dim>
				</port>
			</output>
		</layer>
		<layer id="150" name="2506251014188" type="Const" version="opset1">
			<data element_type="f32" shape="1, 1, 1, 1" offset="56012" size="4" />
			<rt_info>
				<attribute name="fused_names" version="0" value="2506251014188" />
			</rt_info>
			<output>
				<port id="0" precision="FP32">
					<dim>1</dim>
					<dim>1</dim>
					<dim>1</dim>
					<dim>1</dim>
				</port>
			</output>
		</layer>
		<layer id="151" name="2507251114773" type="Const" version="opset1">
			<data element_type="f32" shape="1, 1, 1, 1" offset="56016" size="4" />
			<rt_info>
				<attribute name="fused_names" version="0" value="2507251114773" />
			</rt_info>
			<output>
				<port id="0" precision="FP32">
					<dim>1</dim>
					<dim>1</dim>
					<dim>1</dim>
					<dim>1</dim>
				</port>
			</output>
		</layer>
		<layer id="152" name="2508251214389" type="Const" version="opset1">
			<data element_type="f32" shape="1, 1, 1, 1" offset="56012" size="4" />
			<rt_info>
				<attribute name="fused_names" version="0" value="2508251214389" />
			</rt_info>
			<output>
				<port id="0" precision="FP32">
					<dim>1</dim>
					<dim>1</dim>
					<dim>1</dim>
					<dim>1</dim>
				</port>
			</output>
		</layer>
		<layer id="153" name="2509251314191" type="Const" version="opset1">
			<data element_type="f32" shape="1, 1, 1, 1" offset="56016" size="4" />
			<rt_info>
				<attribute name="fused_names" version="0" value="2509251314191" />
			</rt_info>
			<output>
				<port id="0" precision="FP32">
					<dim>1</dim>
					<dim>1</dim>
					<dim>1</dim>
					<dim>1</dim>
				</port>
			</output>
		</layer>
		<layer id="154" name="/model.4/m.0/Add/fq_input_1" type="FakeQuantize" version="opset1">
			<data levels="256" auto_broadcast="numpy" />
			<rt_info>
				<attribute name="fused_names" version="0" value="/model.4/m.0/Add/fq_input_1" />
			</rt_info>
			<input>
				<port id="0" precision="FP32">
					<dim>1</dim>
					<dim>32</dim>
					<dim>80</dim>
					<dim>80</dim>
				</port>
				<port id="1" precision="FP32">
					<dim>1</dim>
					<dim>1</dim>
					<dim>1</dim>
					<dim>1</dim>
				</port>
				<port id="2" precision="FP32">
					<dim>1</dim>
					<dim>1</dim>
					<dim>1</dim>
					<dim>1</dim>
				</port>
				<port id="3" precision="FP32">
					<dim>1</dim>
					<dim>1</dim>
					<dim>1</dim>
					<dim>1</dim>
				</port>
				<port id="4" precision="FP32">
					<dim>1</dim>
					<dim>1</dim>
					<dim>1</dim>
					<dim>1</dim>
				</port>
			</input>
			<output>
				<port id="5" precision="FP32">
					<dim>1</dim>
					<dim>32</dim>
					<dim>80</dim>
					<dim>80</dim>
				</port>
			</output>
		</layer>
		<layer id="155" name="/model.4/m.0/Add" type="Add" version="opset1">
			<data auto_broadcast="numpy" />
			<rt_info>
				<attribute name="fused_names" version="0" value="/model.4/m.0/Add" />
			</rt_info>
			<input>
				<port id="0" precision="FP32">
					<dim>1</dim>
					<dim>32</dim>
					<dim>80</dim>
					<dim>80</dim>
				</port>
				<port id="1" precision="FP32">
					<dim>1</dim>
					<dim>32</dim>
					<dim>80</dim>
					<dim>80</dim>
				</port>
			</input>
			<output>
				<port id="2" precision="FP32" names="/model.4/m.0/Add_output_0">
					<dim>1</dim>
					<dim>32</dim>
					<dim>80</dim>
					<dim>80</dim>
				</port>
			</output>
		</layer>
		<layer id="156" name="4860486414413" type="Const" version="opset1">
			<data element_type="f32" shape="1, 1, 1, 1" offset="37036" size="4" />
			<rt_info>
				<attribute name="fused_names" version="0" value="4860486414413" />
			</rt_info>
			<output>
				<port id="0" precision="FP32">
					<dim>1</dim>
					<dim>1</dim>
					<dim>1</dim>
					<dim>1</dim>
				</port>
			</output>
		</layer>
		<layer id="157" name="4861486515544" type="Const" version="opset1">
			<data element_type="f32" shape="1, 1, 1, 1" offset="37040" size="4" />
			<rt_info>
				<attribute name="fused_names" version="0" value="4861486515544" />
			</rt_info>
			<output>
				<port id="0" precision="FP32">
					<dim>1</dim>
					<dim>1</dim>
					<dim>1</dim>
					<dim>1</dim>
				</port>
			</output>
		</layer>
		<layer id="158" name="4862486614194" type="Const" version="opset1">
			<data element_type="f32" shape="1, 1, 1, 1" offset="37036" size="4" />
			<rt_info>
				<attribute name="fused_names" version="0" value="4862486614194" />
			</rt_info>
			<output>
				<port id="0" precision="FP32">
					<dim>1</dim>
					<dim>1</dim>
					<dim>1</dim>
					<dim>1</dim>
				</port>
			</output>
		</layer>
		<layer id="159" name="4863486714896" type="Const" version="opset1">
			<data element_type="f32" shape="1, 1, 1, 1" offset="37040" size="4" />
			<rt_info>
				<attribute name="fused_names" version="0" value="4863486714896" />
			</rt_info>
			<output>
				<port id="0" precision="FP32">
					<dim>1</dim>
					<dim>1</dim>
					<dim>1</dim>
					<dim>1</dim>
				</port>
			</output>
		</layer>
		<layer id="160" name="/model.4/Concat/fq_input_2" type="FakeQuantize" version="opset1">
			<data levels="256" auto_broadcast="numpy" />
			<rt_info>
				<attribute name="fused_names" version="0" value="/model.4/Concat/fq_input_2" />
			</rt_info>
			<input>
				<port id="0" precision="FP32">
					<dim>1</dim>
					<dim>32</dim>
					<dim>80</dim>
					<dim>80</dim>
				</port>
				<port id="1" precision="FP32">
					<dim>1</dim>
					<dim>1</dim>
					<dim>1</dim>
					<dim>1</dim>
				</port>
				<port id="2" precision="FP32">
					<dim>1</dim>
					<dim>1</dim>
					<dim>1</dim>
					<dim>1</dim>
				</port>
				<port id="3" precision="FP32">
					<dim>1</dim>
					<dim>1</dim>
					<dim>1</dim>
					<dim>1</dim>
				</port>
				<port id="4" precision="FP32">
					<dim>1</dim>
					<dim>1</dim>
					<dim>1</dim>
					<dim>1</dim>
				</port>
			</input>
			<output>
				<port id="5" precision="FP32">
					<dim>1</dim>
					<dim>32</dim>
					<dim>80</dim>
					<dim>80</dim>
				</port>
			</output>
		</layer>
		<layer id="161" name="model.4.m.1.cv1.conv.weight6718330/quantized1052214566" type="Const" version="opset1">
			<data element_type="i8" shape="32, 32, 3, 3" offset="56020" size="9216" />
			<rt_info>
				<attribute name="fused_names" version="0" value="model.4.m.1.cv1.conv.weight6718330/quantized1052214566" />
			</rt_info>
			<output>
				<port id="0" precision="I8">
					<dim>32</dim>
					<dim>32</dim>
					<dim>3</dim>
					<dim>3</dim>
				</port>
			</output>
		</layer>
		<layer id="162" name="model.4.m.1.cv1.conv.weight6718330/quantized/to_f32" type="Convert" version="opset1">
			<data destination_type="f32" />
			<rt_info>
				<attribute name="fused_names" version="0" value="model.4.m.1.cv1.conv.weight6718330/quantized/to_f32" />
			</rt_info>
			<input>
				<port id="0" precision="I8">
					<dim>32</dim>
					<dim>32</dim>
					<dim>3</dim>
					<dim>3</dim>
				</port>
			</input>
			<output>
				<port id="1" precision="FP32">
					<dim>32</dim>
					<dim>32</dim>
					<dim>3</dim>
					<dim>3</dim>
				</port>
			</output>
		</layer>
		<layer id="163" name="/model.4/m.1/cv1/conv/Conv/WithoutBiases/fq_weights_1/scale1053015760" type="Const" version="opset1">
			<data element_type="f32" shape="32, 1, 1, 1" offset="65236" size="128" />
			<rt_info>
				<attribute name="fused_names" version="0" value="/model.4/m.1/cv1/conv/Conv/WithoutBiases/fq_weights_1/scale1053015760" />
			</rt_info>
			<output>
				<port id="0" precision="FP32">
					<dim>32</dim>
					<dim>1</dim>
					<dim>1</dim>
					<dim>1</dim>
				</port>
			</output>
		</layer>
		<layer id="164" name="/model.4/m.1/cv1/conv/Conv/WithoutBiases/fq_weights_1/mulpiply_by_scale" type="Multiply" version="opset1">
			<data auto_broadcast="numpy" />
			<rt_info>
				<attribute name="fused_names" version="0" value="/model.4/m.1/cv1/conv/Conv/WithoutBiases/fq_weights_1/mulpiply_by_scale" />
			</rt_info>
			<input>
				<port id="0" precision="FP32">
					<dim>32</dim>
					<dim>32</dim>
					<dim>3</dim>
					<dim>3</dim>
				</port>
				<port id="1" precision="FP32">
					<dim>32</dim>
					<dim>1</dim>
					<dim>1</dim>
					<dim>1</dim>
				</port>
			</input>
			<output>
				<port id="2" precision="FP32">
					<dim>32</dim>
					<dim>32</dim>
					<dim>3</dim>
					<dim>3</dim>
				</port>
			</output>
		</layer>
		<layer id="165" name="/model.4/m.1/cv1/conv/Conv/WithoutBiases" type="Convolution" version="opset1">
			<data strides="1, 1" dilations="1, 1" pads_begin="1, 1" pads_end="1, 1" auto_pad="explicit" />
			<rt_info>
				<attribute name="fused_names" version="0" value="/model.4/m.1/cv1/conv/Conv/WithoutBiases" />
			</rt_info>
			<input>
				<port id="0" precision="FP32">
					<dim>1</dim>
					<dim>32</dim>
					<dim>80</dim>
					<dim>80</dim>
				</port>
				<port id="1" precision="FP32">
					<dim>32</dim>
					<dim>32</dim>
					<dim>3</dim>
					<dim>3</dim>
				</port>
			</input>
			<output>
				<port id="2" precision="FP32">
					<dim>1</dim>
					<dim>32</dim>
					<dim>80</dim>
					<dim>80</dim>
				</port>
			</output>
		</layer>
		<layer id="166" name="Reshape_65767315505" type="Const" version="opset1">
			<data element_type="f32" shape="1, 32, 1, 1" offset="65364" size="128" />
			<rt_info>
				<attribute name="fused_names" version="0" value="Reshape_657" />
			</rt_info>
			<output>
				<port id="0" precision="FP32">
					<dim>1</dim>
					<dim>32</dim>
					<dim>1</dim>
					<dim>1</dim>
				</port>
			</output>
		</layer>
		<layer id="167" name="/model.4/m.1/cv1/conv/Conv" type="Add" version="opset1">
			<data auto_broadcast="numpy" />
			<rt_info>
				<attribute name="fused_names" version="0" value="/model.4/m.1/cv1/conv/Conv" />
			</rt_info>
			<input>
				<port id="0" precision="FP32">
					<dim>1</dim>
					<dim>32</dim>
					<dim>80</dim>
					<dim>80</dim>
				</port>
				<port id="1" precision="FP32">
					<dim>1</dim>
					<dim>32</dim>
					<dim>1</dim>
					<dim>1</dim>
				</port>
			</input>
			<output>
				<port id="2" precision="FP32" names="/model.4/m.1/cv1/conv/Conv_output_0">
					<dim>1</dim>
					<dim>32</dim>
					<dim>80</dim>
					<dim>80</dim>
				</port>
			</output>
		</layer>
		<layer id="168" name="/model.4/m.1/cv1/act/Mul" type="Swish" version="opset4">
			<rt_info>
				<attribute name="fused_names" version="0" value="/model.4/m.1/cv1/act/Mul" />
			</rt_info>
			<input>
				<port id="0" precision="FP32">
					<dim>1</dim>
					<dim>32</dim>
					<dim>80</dim>
					<dim>80</dim>
				</port>
			</input>
			<output>
				<port id="1" precision="FP32" names="/model.4/m.1/cv1/act/Mul_output_0">
					<dim>1</dim>
					<dim>32</dim>
					<dim>80</dim>
					<dim>80</dim>
				</port>
			</output>
		</layer>
		<layer id="169" name="2336234014140" type="Const" version="opset1">
			<data element_type="f32" shape="1, 1, 1, 1" offset="5484" size="4" />
			<rt_info>
				<attribute name="fused_names" version="0" value="2336234014140" />
			</rt_info>
			<output>
				<port id="0" precision="FP32">
					<dim>1</dim>
					<dim>1</dim>
					<dim>1</dim>
					<dim>1</dim>
				</port>
			</output>
		</layer>
		<layer id="170" name="2337234115433" type="Const" version="opset1">
			<data element_type="f32" shape="1, 1, 1, 1" offset="65492" size="4" />
			<rt_info>
				<attribute name="fused_names" version="0" value="2337234115433" />
			</rt_info>
			<output>
				<port id="0" precision="FP32">
					<dim>1</dim>
					<dim>1</dim>
					<dim>1</dim>
					<dim>1</dim>
				</port>
			</output>
		</layer>
		<layer id="171" name="2338234215127" type="Const" version="opset1">
			<data element_type="f32" shape="1, 1, 1, 1" offset="5484" size="4" />
			<rt_info>
				<attribute name="fused_names" version="0" value="2338234215127" />
			</rt_info>
			<output>
				<port id="0" precision="FP32">
					<dim>1</dim>
					<dim>1</dim>
					<dim>1</dim>
					<dim>1</dim>
				</port>
			</output>
		</layer>
		<layer id="172" name="2339234315349" type="Const" version="opset1">
			<data element_type="f32" shape="1, 1, 1, 1" offset="65492" size="4" />
			<rt_info>
				<attribute name="fused_names" version="0" value="2339234315349" />
			</rt_info>
			<output>
				<port id="0" precision="FP32">
					<dim>1</dim>
					<dim>1</dim>
					<dim>1</dim>
					<dim>1</dim>
				</port>
			</output>
		</layer>
		<layer id="173" name="/model.4/m.1/cv2/conv/Conv/WithoutBiases/fq_input_0" type="FakeQuantize" version="opset1">
			<data levels="256" auto_broadcast="numpy" />
			<rt_info>
				<attribute name="fused_names" version="0" value="/model.4/m.1/cv2/conv/Conv/WithoutBiases/fq_input_0" />
			</rt_info>
			<input>
				<port id="0" precision="FP32">
					<dim>1</dim>
					<dim>32</dim>
					<dim>80</dim>
					<dim>80</dim>
				</port>
				<port id="1" precision="FP32">
					<dim>1</dim>
					<dim>1</dim>
					<dim>1</dim>
					<dim>1</dim>
				</port>
				<port id="2" precision="FP32">
					<dim>1</dim>
					<dim>1</dim>
					<dim>1</dim>
					<dim>1</dim>
				</port>
				<port id="3" precision="FP32">
					<dim>1</dim>
					<dim>1</dim>
					<dim>1</dim>
					<dim>1</dim>
				</port>
				<port id="4" precision="FP32">
					<dim>1</dim>
					<dim>1</dim>
					<dim>1</dim>
					<dim>1</dim>
				</port>
			</input>
			<output>
				<port id="5" precision="FP32">
					<dim>1</dim>
					<dim>32</dim>
					<dim>80</dim>
					<dim>80</dim>
				</port>
			</output>
		</layer>
		<layer id="174" name="model.4.m.1.cv2.conv.weight6768332/quantized983214674" type="Const" version="opset1">
			<data element_type="i8" shape="32, 32, 3, 3" offset="65496" size="9216" />
			<rt_info>
				<attribute name="fused_names" version="0" value="model.4.m.1.cv2.conv.weight6768332/quantized983214674" />
			</rt_info>
			<output>
				<port id="0" precision="I8">
					<dim>32</dim>
					<dim>32</dim>
					<dim>3</dim>
					<dim>3</dim>
				</port>
			</output>
		</layer>
		<layer id="175" name="model.4.m.1.cv2.conv.weight6768332/quantized/to_f32" type="Convert" version="opset1">
			<data destination_type="f32" />
			<rt_info>
				<attribute name="fused_names" version="0" value="model.4.m.1.cv2.conv.weight6768332/quantized/to_f32" />
			</rt_info>
			<input>
				<port id="0" precision="I8">
					<dim>32</dim>
					<dim>32</dim>
					<dim>3</dim>
					<dim>3</dim>
				</port>
			</input>
			<output>
				<port id="1" precision="FP32">
					<dim>32</dim>
					<dim>32</dim>
					<dim>3</dim>
					<dim>3</dim>
				</port>
			</output>
		</layer>
		<layer id="176" name="/model.4/m.1/cv2/conv/Conv/WithoutBiases/fq_weights_1/scale984015103" type="Const" version="opset1">
			<data element_type="f32" shape="32, 1, 1, 1" offset="74712" size="128" />
			<rt_info>
				<attribute name="fused_names" version="0" value="/model.4/m.1/cv2/conv/Conv/WithoutBiases/fq_weights_1/scale984015103" />
			</rt_info>
			<output>
				<port id="0" precision="FP32">
					<dim>32</dim>
					<dim>1</dim>
					<dim>1</dim>
					<dim>1</dim>
				</port>
			</output>
		</layer>
		<layer id="177" name="/model.4/m.1/cv2/conv/Conv/WithoutBiases/fq_weights_1/mulpiply_by_scale" type="Multiply" version="opset1">
			<data auto_broadcast="numpy" />
			<rt_info>
				<attribute name="fused_names" version="0" value="/model.4/m.1/cv2/conv/Conv/WithoutBiases/fq_weights_1/mulpiply_by_scale" />
			</rt_info>
			<input>
				<port id="0" precision="FP32">
					<dim>32</dim>
					<dim>32</dim>
					<dim>3</dim>
					<dim>3</dim>
				</port>
				<port id="1" precision="FP32">
					<dim>32</dim>
					<dim>1</dim>
					<dim>1</dim>
					<dim>1</dim>
				</port>
			</input>
			<output>
				<port id="2" precision="FP32">
					<dim>32</dim>
					<dim>32</dim>
					<dim>3</dim>
					<dim>3</dim>
				</port>
			</output>
		</layer>
		<layer id="178" name="/model.4/m.1/cv2/conv/Conv/WithoutBiases" type="Convolution" version="opset1">
			<data strides="1, 1" dilations="1, 1" pads_begin="1, 1" pads_end="1, 1" auto_pad="explicit" />
			<rt_info>
				<attribute name="fused_names" version="0" value="/model.4/m.1/cv2/conv/Conv/WithoutBiases" />
			</rt_info>
			<input>
				<port id="0" precision="FP32">
					<dim>1</dim>
					<dim>32</dim>
					<dim>80</dim>
					<dim>80</dim>
				</port>
				<port id="1" precision="FP32">
					<dim>32</dim>
					<dim>32</dim>
					<dim>3</dim>
					<dim>3</dim>
				</port>
			</input>
			<output>
				<port id="2" precision="FP32">
					<dim>1</dim>
					<dim>32</dim>
					<dim>80</dim>
					<dim>80</dim>
				</port>
			</output>
		</layer>
		<layer id="179" name="Reshape_70767814935" type="Const" version="opset1">
			<data element_type="f32" shape="1, 32, 1, 1" offset="74840" size="128" />
			<rt_info>
				<attribute name="fused_names" version="0" value="Reshape_707" />
			</rt_info>
			<output>
				<port id="0" precision="FP32">
					<dim>1</dim>
					<dim>32</dim>
					<dim>1</dim>
					<dim>1</dim>
				</port>
			</output>
		</layer>
		<layer id="180" name="/model.4/m.1/cv2/conv/Conv" type="Add" version="opset1">
			<data auto_broadcast="numpy" />
			<rt_info>
				<attribute name="fused_names" version="0" value="/model.4/m.1/cv2/conv/Conv" />
			</rt_info>
			<input>
				<port id="0" precision="FP32">
					<dim>1</dim>
					<dim>32</dim>
					<dim>80</dim>
					<dim>80</dim>
				</port>
				<port id="1" precision="FP32">
					<dim>1</dim>
					<dim>32</dim>
					<dim>1</dim>
					<dim>1</dim>
				</port>
			</input>
			<output>
				<port id="2" precision="FP32" names="/model.4/m.1/cv2/conv/Conv_output_0">
					<dim>1</dim>
					<dim>32</dim>
					<dim>80</dim>
					<dim>80</dim>
				</port>
			</output>
		</layer>
		<layer id="181" name="/model.4/m.1/cv2/act/Mul" type="Swish" version="opset4">
			<rt_info>
				<attribute name="fused_names" version="0" value="/model.4/m.1/cv2/act/Mul" />
			</rt_info>
			<input>
				<port id="0" precision="FP32">
					<dim>1</dim>
					<dim>32</dim>
					<dim>80</dim>
					<dim>80</dim>
				</port>
			</input>
			<output>
				<port id="1" precision="FP32" names="/model.4/m.1/cv2/act/Mul_output_0">
					<dim>1</dim>
					<dim>32</dim>
					<dim>80</dim>
					<dim>80</dim>
				</port>
			</output>
		</layer>
		<layer id="182" name="2666267015136" type="Const" version="opset1">
			<data element_type="f32" shape="1, 1, 1, 1" offset="74968" size="4" />
			<rt_info>
				<attribute name="fused_names" version="0" value="2666267015136" />
			</rt_info>
			<output>
				<port id="0" precision="FP32">
					<dim>1</dim>
					<dim>1</dim>
					<dim>1</dim>
					<dim>1</dim>
				</port>
			</output>
		</layer>
		<layer id="183" name="2667267115448" type="Const" version="opset1">
			<data element_type="f32" shape="1, 1, 1, 1" offset="74972" size="4" />
			<rt_info>
				<attribute name="fused_names" version="0" value="2667267115448" />
			</rt_info>
			<output>
				<port id="0" precision="FP32">
					<dim>1</dim>
					<dim>1</dim>
					<dim>1</dim>
					<dim>1</dim>
				</port>
			</output>
		</layer>
		<layer id="184" name="2668267214695" type="Const" version="opset1">
			<data element_type="f32" shape="1, 1, 1, 1" offset="74968" size="4" />
			<rt_info>
				<attribute name="fused_names" version="0" value="2668267214695" />
			</rt_info>
			<output>
				<port id="0" precision="FP32">
					<dim>1</dim>
					<dim>1</dim>
					<dim>1</dim>
					<dim>1</dim>
				</port>
			</output>
		</layer>
		<layer id="185" name="2669267315244" type="Const" version="opset1">
			<data element_type="f32" shape="1, 1, 1, 1" offset="74972" size="4" />
			<rt_info>
				<attribute name="fused_names" version="0" value="2669267315244" />
			</rt_info>
			<output>
				<port id="0" precision="FP32">
					<dim>1</dim>
					<dim>1</dim>
					<dim>1</dim>
					<dim>1</dim>
				</port>
			</output>
		</layer>
		<layer id="186" name="/model.4/m.1/Add/fq_input_1" type="FakeQuantize" version="opset1">
			<data levels="256" auto_broadcast="numpy" />
			<rt_info>
				<attribute name="fused_names" version="0" value="/model.4/m.1/Add/fq_input_1" />
			</rt_info>
			<input>
				<port id="0" precision="FP32">
					<dim>1</dim>
					<dim>32</dim>
					<dim>80</dim>
					<dim>80</dim>
				</port>
				<port id="1" precision="FP32">
					<dim>1</dim>
					<dim>1</dim>
					<dim>1</dim>
					<dim>1</dim>
				</port>
				<port id="2" precision="FP32">
					<dim>1</dim>
					<dim>1</dim>
					<dim>1</dim>
					<dim>1</dim>
				</port>
				<port id="3" precision="FP32">
					<dim>1</dim>
					<dim>1</dim>
					<dim>1</dim>
					<dim>1</dim>
				</port>
				<port id="4" precision="FP32">
					<dim>1</dim>
					<dim>1</dim>
					<dim>1</dim>
					<dim>1</dim>
				</port>
			</input>
			<output>
				<port id="5" precision="FP32">
					<dim>1</dim>
					<dim>32</dim>
					<dim>80</dim>
					<dim>80</dim>
				</port>
			</output>
		</layer>
		<layer id="187" name="/model.4/m.1/Add" type="Add" version="opset1">
			<data auto_broadcast="numpy" />
			<rt_info>
				<attribute name="fused_names" version="0" value="/model.4/m.1/Add" />
			</rt_info>
			<input>
				<port id="0" precision="FP32">
					<dim>1</dim>
					<dim>32</dim>
					<dim>80</dim>
					<dim>80</dim>
				</port>
				<port id="1" precision="FP32">
					<dim>1</dim>
					<dim>32</dim>
					<dim>80</dim>
					<dim>80</dim>
				</port>
			</input>
			<output>
				<port id="2" precision="FP32" names="/model.4/m.1/Add_output_0">
					<dim>1</dim>
					<dim>32</dim>
					<dim>80</dim>
					<dim>80</dim>
				</port>
			</output>
		</layer>
		<layer id="188" name="4870487414968" type="Const" version="opset1">
			<data element_type="f32" shape="1, 1, 1, 1" offset="37036" size="4" />
			<rt_info>
				<attribute name="fused_names" version="0" value="4870487414968" />
			</rt_info>
			<output>
				<port id="0" precision="FP32">
					<dim>1</dim>
					<dim>1</dim>
					<dim>1</dim>
					<dim>1</dim>
				</port>
			</output>
		</layer>
		<layer id="189" name="4871487514113" type="Const" version="opset1">
			<data element_type="f32" shape="1, 1, 1, 1" offset="37040" size="4" />
			<rt_info>
				<attribute name="fused_names" version="0" value="4871487514113" />
			</rt_info>
			<output>
				<port id="0" precision="FP32">
					<dim>1</dim>
					<dim>1</dim>
					<dim>1</dim>
					<dim>1</dim>
				</port>
			</output>
		</layer>
		<layer id="190" name="4872487615679" type="Const" version="opset1">
			<data element_type="f32" shape="1, 1, 1, 1" offset="37036" size="4" />
			<rt_info>
				<attribute name="fused_names" version="0" value="4872487615679" />
			</rt_info>
			<output>
				<port id="0" precision="FP32">
					<dim>1</dim>
					<dim>1</dim>
					<dim>1</dim>
					<dim>1</dim>
				</port>
			</output>
		</layer>
		<layer id="191" name="4873487714287" type="Const" version="opset1">
			<data element_type="f32" shape="1, 1, 1, 1" offset="37040" size="4" />
			<rt_info>
				<attribute name="fused_names" version="0" value="4873487714287" />
			</rt_info>
			<output>
				<port id="0" precision="FP32">
					<dim>1</dim>
					<dim>1</dim>
					<dim>1</dim>
					<dim>1</dim>
				</port>
			</output>
		</layer>
		<layer id="192" name="/model.4/Concat/fq_input_3" type="FakeQuantize" version="opset1">
			<data levels="256" auto_broadcast="numpy" />
			<rt_info>
				<attribute name="fused_names" version="0" value="/model.4/Concat/fq_input_3" />
			</rt_info>
			<input>
				<port id="0" precision="FP32">
					<dim>1</dim>
					<dim>32</dim>
					<dim>80</dim>
					<dim>80</dim>
				</port>
				<port id="1" precision="FP32">
					<dim>1</dim>
					<dim>1</dim>
					<dim>1</dim>
					<dim>1</dim>
				</port>
				<port id="2" precision="FP32">
					<dim>1</dim>
					<dim>1</dim>
					<dim>1</dim>
					<dim>1</dim>
				</port>
				<port id="3" precision="FP32">
					<dim>1</dim>
					<dim>1</dim>
					<dim>1</dim>
					<dim>1</dim>
				</port>
				<port id="4" precision="FP32">
					<dim>1</dim>
					<dim>1</dim>
					<dim>1</dim>
					<dim>1</dim>
				</port>
			</input>
			<output>
				<port id="5" precision="FP32">
					<dim>1</dim>
					<dim>32</dim>
					<dim>80</dim>
					<dim>80</dim>
				</port>
			</output>
		</layer>
		<layer id="193" name="/model.4/Concat" type="Concat" version="opset1">
			<data axis="1" />
			<rt_info>
				<attribute name="fused_names" version="0" value="/model.4/Concat" />
			</rt_info>
			<input>
				<port id="0" precision="FP32">
					<dim>1</dim>
					<dim>32</dim>
					<dim>80</dim>
					<dim>80</dim>
				</port>
				<port id="1" precision="FP32">
					<dim>1</dim>
					<dim>32</dim>
					<dim>80</dim>
					<dim>80</dim>
				</port>
				<port id="2" precision="FP32">
					<dim>1</dim>
					<dim>32</dim>
					<dim>80</dim>
					<dim>80</dim>
				</port>
				<port id="3" precision="FP32">
					<dim>1</dim>
					<dim>32</dim>
					<dim>80</dim>
					<dim>80</dim>
				</port>
			</input>
			<output>
				<port id="4" precision="FP32" names="/model.4/Concat_output_0">
					<dim>1</dim>
					<dim>128</dim>
					<dim>80</dim>
					<dim>80</dim>
				</port>
			</output>
		</layer>
		<layer id="194" name="model.4.cv2.conv.weight6838334/quantized1028215097" type="Const" version="opset1">
			<data element_type="i8" shape="64, 128, 1, 1" offset="74976" size="8192" />
			<rt_info>
				<attribute name="fused_names" version="0" value="model.4.cv2.conv.weight6838334/quantized1028215097" />
			</rt_info>
			<output>
				<port id="0" precision="I8">
					<dim>64</dim>
					<dim>128</dim>
					<dim>1</dim>
					<dim>1</dim>
				</port>
			</output>
		</layer>
		<layer id="195" name="model.4.cv2.conv.weight6838334/quantized/to_f32" type="Convert" version="opset1">
			<data destination_type="f32" />
			<rt_info>
				<attribute name="fused_names" version="0" value="model.4.cv2.conv.weight6838334/quantized/to_f32" />
			</rt_info>
			<input>
				<port id="0" precision="I8">
					<dim>64</dim>
					<dim>128</dim>
					<dim>1</dim>
					<dim>1</dim>
				</port>
			</input>
			<output>
				<port id="1" precision="FP32">
					<dim>64</dim>
					<dim>128</dim>
					<dim>1</dim>
					<dim>1</dim>
				</port>
			</output>
		</layer>
		<layer id="196" name="/model.4/cv2/conv/Conv/WithoutBiases/fq_weights_1/scale1029014602" type="Const" version="opset1">
			<data element_type="f32" shape="64, 1, 1, 1" offset="83168" size="256" />
			<rt_info>
				<attribute name="fused_names" version="0" value="/model.4/cv2/conv/Conv/WithoutBiases/fq_weights_1/scale1029014602" />
			</rt_info>
			<output>
				<port id="0" precision="FP32">
					<dim>64</dim>
					<dim>1</dim>
					<dim>1</dim>
					<dim>1</dim>
				</port>
			</output>
		</layer>
		<layer id="197" name="/model.4/cv2/conv/Conv/WithoutBiases/fq_weights_1/mulpiply_by_scale" type="Multiply" version="opset1">
			<data auto_broadcast="numpy" />
			<rt_info>
				<attribute name="fused_names" version="0" value="/model.4/cv2/conv/Conv/WithoutBiases/fq_weights_1/mulpiply_by_scale" />
			</rt_info>
			<input>
				<port id="0" precision="FP32">
					<dim>64</dim>
					<dim>128</dim>
					<dim>1</dim>
					<dim>1</dim>
				</port>
				<port id="1" precision="FP32">
					<dim>64</dim>
					<dim>1</dim>
					<dim>1</dim>
					<dim>1</dim>
				</port>
			</input>
			<output>
				<port id="2" precision="FP32">
					<dim>64</dim>
					<dim>128</dim>
					<dim>1</dim>
					<dim>1</dim>
				</port>
			</output>
		</layer>
		<layer id="198" name="/model.4/cv2/conv/Conv/WithoutBiases" type="Convolution" version="opset1">
			<data strides="1, 1" dilations="1, 1" pads_begin="0, 0" pads_end="0, 0" auto_pad="explicit" />
			<rt_info>
				<attribute name="fused_names" version="0" value="/model.4/cv2/conv/Conv/WithoutBiases" />
			</rt_info>
			<input>
				<port id="0" precision="FP32">
					<dim>1</dim>
					<dim>128</dim>
					<dim>80</dim>
					<dim>80</dim>
				</port>
				<port id="1" precision="FP32">
					<dim>64</dim>
					<dim>128</dim>
					<dim>1</dim>
					<dim>1</dim>
				</port>
			</input>
			<output>
				<port id="2" precision="FP32">
					<dim>1</dim>
					<dim>64</dim>
					<dim>80</dim>
					<dim>80</dim>
				</port>
			</output>
		</layer>
		<layer id="199" name="Reshape_75968514344" type="Const" version="opset1">
			<data element_type="f32" shape="1, 64, 1, 1" offset="83424" size="256" />
			<rt_info>
				<attribute name="fused_names" version="0" value="Reshape_759" />
			</rt_info>
			<output>
				<port id="0" precision="FP32">
					<dim>1</dim>
					<dim>64</dim>
					<dim>1</dim>
					<dim>1</dim>
				</port>
			</output>
		</layer>
		<layer id="200" name="/model.4/cv2/conv/Conv" type="Add" version="opset1">
			<data auto_broadcast="numpy" />
			<rt_info>
				<attribute name="fused_names" version="0" value="/model.4/cv2/conv/Conv" />
			</rt_info>
			<input>
				<port id="0" precision="FP32">
					<dim>1</dim>
					<dim>64</dim>
					<dim>80</dim>
					<dim>80</dim>
				</port>
				<port id="1" precision="FP32">
					<dim>1</dim>
					<dim>64</dim>
					<dim>1</dim>
					<dim>1</dim>
				</port>
			</input>
			<output>
				<port id="2" precision="FP32" names="/model.4/cv2/conv/Conv_output_0">
					<dim>1</dim>
					<dim>64</dim>
					<dim>80</dim>
					<dim>80</dim>
				</port>
			</output>
		</layer>
		<layer id="201" name="/model.4/cv2/act/Mul" type="Swish" version="opset4">
			<rt_info>
				<attribute name="fused_names" version="0" value="/model.4/cv2/act/Mul" />
			</rt_info>
			<input>
				<port id="0" precision="FP32">
					<dim>1</dim>
					<dim>64</dim>
					<dim>80</dim>
					<dim>80</dim>
				</port>
			</input>
			<output>
				<port id="1" precision="FP32" names="/model.4/cv2/act/Mul_output_0">
					<dim>1</dim>
					<dim>64</dim>
					<dim>80</dim>
					<dim>80</dim>
				</port>
			</output>
		</layer>
		<layer id="202" name="4540454415742" type="Const" version="opset1">
			<data element_type="f32" shape="1, 1, 1, 1" offset="5484" size="4" />
			<rt_info>
				<attribute name="fused_names" version="0" value="4540454415742" />
			</rt_info>
			<output>
				<port id="0" precision="FP32">
					<dim>1</dim>
					<dim>1</dim>
					<dim>1</dim>
					<dim>1</dim>
				</port>
			</output>
		</layer>
		<layer id="203" name="4541454514152" type="Const" version="opset1">
			<data element_type="f32" shape="1, 1, 1, 1" offset="83680" size="4" />
			<rt_info>
				<attribute name="fused_names" version="0" value="4541454514152" />
			</rt_info>
			<output>
				<port id="0" precision="FP32">
					<dim>1</dim>
					<dim>1</dim>
					<dim>1</dim>
					<dim>1</dim>
				</port>
			</output>
		</layer>
		<layer id="204" name="4542454615241" type="Const" version="opset1">
			<data element_type="f32" shape="1, 1, 1, 1" offset="5484" size="4" />
			<rt_info>
				<attribute name="fused_names" version="0" value="4542454615241" />
			</rt_info>
			<output>
				<port id="0" precision="FP32">
					<dim>1</dim>
					<dim>1</dim>
					<dim>1</dim>
					<dim>1</dim>
				</port>
			</output>
		</layer>
		<layer id="205" name="4543454715439" type="Const" version="opset1">
			<data element_type="f32" shape="1, 1, 1, 1" offset="83680" size="4" />
			<rt_info>
				<attribute name="fused_names" version="0" value="4543454715439" />
			</rt_info>
			<output>
				<port id="0" precision="FP32">
					<dim>1</dim>
					<dim>1</dim>
					<dim>1</dim>
					<dim>1</dim>
				</port>
			</output>
		</layer>
		<layer id="206" name="/model.14/Concat/fq_input_1" type="FakeQuantize" version="opset1">
			<data levels="256" auto_broadcast="numpy" />
			<rt_info>
				<attribute name="fused_names" version="0" value="/model.14/Concat/fq_input_1" />
			</rt_info>
			<input>
				<port id="0" precision="FP32">
					<dim>1</dim>
					<dim>64</dim>
					<dim>80</dim>
					<dim>80</dim>
				</port>
				<port id="1" precision="FP32">
					<dim>1</dim>
					<dim>1</dim>
					<dim>1</dim>
					<dim>1</dim>
				</port>
				<port id="2" precision="FP32">
					<dim>1</dim>
					<dim>1</dim>
					<dim>1</dim>
					<dim>1</dim>
				</port>
				<port id="3" precision="FP32">
					<dim>1</dim>
					<dim>1</dim>
					<dim>1</dim>
					<dim>1</dim>
				</port>
				<port id="4" precision="FP32">
					<dim>1</dim>
					<dim>1</dim>
					<dim>1</dim>
					<dim>1</dim>
				</port>
			</input>
			<output>
				<port id="5" precision="FP32">
					<dim>1</dim>
					<dim>64</dim>
					<dim>80</dim>
					<dim>80</dim>
				</port>
			</output>
		</layer>
		<layer id="207" name="model.5.conv.weight6888336/quantized989215601" type="Const" version="opset1">
			<data element_type="i8" shape="128, 64, 3, 3" offset="83684" size="73728" />
			<rt_info>
				<attribute name="fused_names" version="0" value="model.5.conv.weight6888336/quantized989215601" />
			</rt_info>
			<output>
				<port id="0" precision="I8">
					<dim>128</dim>
					<dim>64</dim>
					<dim>3</dim>
					<dim>3</dim>
				</port>
			</output>
		</layer>
		<layer id="208" name="model.5.conv.weight6888336/quantized/to_f32" type="Convert" version="opset1">
			<data destination_type="f32" />
			<rt_info>
				<attribute name="fused_names" version="0" value="model.5.conv.weight6888336/quantized/to_f32" />
			</rt_info>
			<input>
				<port id="0" precision="I8">
					<dim>128</dim>
					<dim>64</dim>
					<dim>3</dim>
					<dim>3</dim>
				</port>
			</input>
			<output>
				<port id="1" precision="FP32">
					<dim>128</dim>
					<dim>64</dim>
					<dim>3</dim>
					<dim>3</dim>
				</port>
			</output>
		</layer>
		<layer id="209" name="/model.5/conv/Conv/WithoutBiases/fq_weights_1/scale990015115" type="Const" version="opset1">
			<data element_type="f32" shape="128, 1, 1, 1" offset="157412" size="512" />
			<rt_info>
				<attribute name="fused_names" version="0" value="/model.5/conv/Conv/WithoutBiases/fq_weights_1/scale990015115" />
			</rt_info>
			<output>
				<port id="0" precision="FP32">
					<dim>128</dim>
					<dim>1</dim>
					<dim>1</dim>
					<dim>1</dim>
				</port>
			</output>
		</layer>
		<layer id="210" name="/model.5/conv/Conv/WithoutBiases/fq_weights_1/mulpiply_by_scale" type="Multiply" version="opset1">
			<data auto_broadcast="numpy" />
			<rt_info>
				<attribute name="fused_names" version="0" value="/model.5/conv/Conv/WithoutBiases/fq_weights_1/mulpiply_by_scale" />
			</rt_info>
			<input>
				<port id="0" precision="FP32">
					<dim>128</dim>
					<dim>64</dim>
					<dim>3</dim>
					<dim>3</dim>
				</port>
				<port id="1" precision="FP32">
					<dim>128</dim>
					<dim>1</dim>
					<dim>1</dim>
					<dim>1</dim>
				</port>
			</input>
			<output>
				<port id="2" precision="FP32">
					<dim>128</dim>
					<dim>64</dim>
					<dim>3</dim>
					<dim>3</dim>
				</port>
			</output>
		</layer>
		<layer id="211" name="/model.5/conv/Conv/WithoutBiases" type="Convolution" version="opset1">
			<data strides="2, 2" dilations="1, 1" pads_begin="1, 1" pads_end="1, 1" auto_pad="explicit" />
			<rt_info>
				<attribute name="fused_names" version="0" value="/model.5/conv/Conv/WithoutBiases" />
			</rt_info>
			<input>
				<port id="0" precision="FP32">
					<dim>1</dim>
					<dim>64</dim>
					<dim>80</dim>
					<dim>80</dim>
				</port>
				<port id="1" precision="FP32">
					<dim>128</dim>
					<dim>64</dim>
					<dim>3</dim>
					<dim>3</dim>
				</port>
			</input>
			<output>
				<port id="2" precision="FP32">
					<dim>1</dim>
					<dim>128</dim>
					<dim>40</dim>
					<dim>40</dim>
				</port>
			</output>
		</layer>
		<layer id="212" name="Reshape_80969014776" type="Const" version="opset1">
			<data element_type="f32" shape="1, 128, 1, 1" offset="157924" size="512" />
			<rt_info>
				<attribute name="fused_names" version="0" value="Reshape_809" />
			</rt_info>
			<output>
				<port id="0" precision="FP32">
					<dim>1</dim>
					<dim>128</dim>
					<dim>1</dim>
					<dim>1</dim>
				</port>
			</output>
		</layer>
		<layer id="213" name="/model.5/conv/Conv" type="Add" version="opset1">
			<data auto_broadcast="numpy" />
			<rt_info>
				<attribute name="fused_names" version="0" value="/model.5/conv/Conv" />
			</rt_info>
			<input>
				<port id="0" precision="FP32">
					<dim>1</dim>
					<dim>128</dim>
					<dim>40</dim>
					<dim>40</dim>
				</port>
				<port id="1" precision="FP32">
					<dim>1</dim>
					<dim>128</dim>
					<dim>1</dim>
					<dim>1</dim>
				</port>
			</input>
			<output>
				<port id="2" precision="FP32" names="/model.5/conv/Conv_output_0">
					<dim>1</dim>
					<dim>128</dim>
					<dim>40</dim>
					<dim>40</dim>
				</port>
			</output>
		</layer>
		<layer id="214" name="/model.5/act/Mul" type="Swish" version="opset4">
			<rt_info>
				<attribute name="fused_names" version="0" value="/model.5/act/Mul" />
			</rt_info>
			<input>
				<port id="0" precision="FP32">
					<dim>1</dim>
					<dim>128</dim>
					<dim>40</dim>
					<dim>40</dim>
				</port>
			</input>
			<output>
				<port id="1" precision="FP32" names="/model.5/act/Mul_output_0">
					<dim>1</dim>
					<dim>128</dim>
					<dim>40</dim>
					<dim>40</dim>
				</port>
			</output>
		</layer>
		<layer id="215" name="2436244015421" type="Const" version="opset1">
			<data element_type="f32" shape="1, 1, 1, 1" offset="158436" size="4" />
			<rt_info>
				<attribute name="fused_names" version="0" value="2436244015421" />
			</rt_info>
			<output>
				<port id="0" precision="FP32">
					<dim>1</dim>
					<dim>1</dim>
					<dim>1</dim>
					<dim>1</dim>
				</port>
			</output>
		</layer>
		<layer id="216" name="2437244115565" type="Const" version="opset1">
			<data element_type="f32" shape="1, 1, 1, 1" offset="158440" size="4" />
			<rt_info>
				<attribute name="fused_names" version="0" value="2437244115565" />
			</rt_info>
			<output>
				<port id="0" precision="FP32">
					<dim>1</dim>
					<dim>1</dim>
					<dim>1</dim>
					<dim>1</dim>
				</port>
			</output>
		</layer>
		<layer id="217" name="2438244215496" type="Const" version="opset1">
			<data element_type="f32" shape="1, 1, 1, 1" offset="158436" size="4" />
			<rt_info>
				<attribute name="fused_names" version="0" value="2438244215496" />
			</rt_info>
			<output>
				<port id="0" precision="FP32">
					<dim>1</dim>
					<dim>1</dim>
					<dim>1</dim>
					<dim>1</dim>
				</port>
			</output>
		</layer>
		<layer id="218" name="2439244315226" type="Const" version="opset1">
			<data element_type="f32" shape="1, 1, 1, 1" offset="158440" size="4" />
			<rt_info>
				<attribute name="fused_names" version="0" value="2439244315226" />
			</rt_info>
			<output>
				<port id="0" precision="FP32">
					<dim>1</dim>
					<dim>1</dim>
					<dim>1</dim>
					<dim>1</dim>
				</port>
			</output>
		</layer>
		<layer id="219" name="/model.6/cv1/conv/Conv/WithoutBiases/fq_input_0" type="FakeQuantize" version="opset1">
			<data levels="256" auto_broadcast="numpy" />
			<rt_info>
				<attribute name="fused_names" version="0" value="/model.6/cv1/conv/Conv/WithoutBiases/fq_input_0" />
			</rt_info>
			<input>
				<port id="0" precision="FP32">
					<dim>1</dim>
					<dim>128</dim>
					<dim>40</dim>
					<dim>40</dim>
				</port>
				<port id="1" precision="FP32">
					<dim>1</dim>
					<dim>1</dim>
					<dim>1</dim>
					<dim>1</dim>
				</port>
				<port id="2" precision="FP32">
					<dim>1</dim>
					<dim>1</dim>
					<dim>1</dim>
					<dim>1</dim>
				</port>
				<port id="3" precision="FP32">
					<dim>1</dim>
					<dim>1</dim>
					<dim>1</dim>
					<dim>1</dim>
				</port>
				<port id="4" precision="FP32">
					<dim>1</dim>
					<dim>1</dim>
					<dim>1</dim>
					<dim>1</dim>
				</port>
			</input>
			<output>
				<port id="5" precision="FP32">
					<dim>1</dim>
					<dim>128</dim>
					<dim>40</dim>
					<dim>40</dim>
				</port>
			</output>
		</layer>
		<layer id="220" name="model.6.cv1.conv.weight6938338/quantized929214038" type="Const" version="opset1">
			<data element_type="i8" shape="128, 128, 1, 1" offset="158444" size="16384" />
			<rt_info>
				<attribute name="fused_names" version="0" value="model.6.cv1.conv.weight6938338/quantized929214038" />
			</rt_info>
			<output>
				<port id="0" precision="I8">
					<dim>128</dim>
					<dim>128</dim>
					<dim>1</dim>
					<dim>1</dim>
				</port>
			</output>
		</layer>
		<layer id="221" name="model.6.cv1.conv.weight6938338/quantized/to_f32" type="Convert" version="opset1">
			<data destination_type="f32" />
			<rt_info>
				<attribute name="fused_names" version="0" value="model.6.cv1.conv.weight6938338/quantized/to_f32" />
			</rt_info>
			<input>
				<port id="0" precision="I8">
					<dim>128</dim>
					<dim>128</dim>
					<dim>1</dim>
					<dim>1</dim>
				</port>
			</input>
			<output>
				<port id="1" precision="FP32">
					<dim>128</dim>
					<dim>128</dim>
					<dim>1</dim>
					<dim>1</dim>
				</port>
			</output>
		</layer>
		<layer id="222" name="/model.6/cv1/conv/Conv/WithoutBiases/fq_weights_1/scale930014509" type="Const" version="opset1">
			<data element_type="f32" shape="128, 1, 1, 1" offset="174828" size="512" />
			<rt_info>
				<attribute name="fused_names" version="0" value="/model.6/cv1/conv/Conv/WithoutBiases/fq_weights_1/scale930014509" />
			</rt_info>
			<output>
				<port id="0" precision="FP32">
					<dim>128</dim>
					<dim>1</dim>
					<dim>1</dim>
					<dim>1</dim>
				</port>
			</output>
		</layer>
		<layer id="223" name="/model.6/cv1/conv/Conv/WithoutBiases/fq_weights_1/mulpiply_by_scale" type="Multiply" version="opset1">
			<data auto_broadcast="numpy" />
			<rt_info>
				<attribute name="fused_names" version="0" value="/model.6/cv1/conv/Conv/WithoutBiases/fq_weights_1/mulpiply_by_scale" />
			</rt_info>
			<input>
				<port id="0" precision="FP32">
					<dim>128</dim>
					<dim>128</dim>
					<dim>1</dim>
					<dim>1</dim>
				</port>
				<port id="1" precision="FP32">
					<dim>128</dim>
					<dim>1</dim>
					<dim>1</dim>
					<dim>1</dim>
				</port>
			</input>
			<output>
				<port id="2" precision="FP32">
					<dim>128</dim>
					<dim>128</dim>
					<dim>1</dim>
					<dim>1</dim>
				</port>
			</output>
		</layer>
		<layer id="224" name="/model.6/cv1/conv/Conv/WithoutBiases" type="Convolution" version="opset1">
			<data strides="1, 1" dilations="1, 1" pads_begin="0, 0" pads_end="0, 0" auto_pad="explicit" />
			<rt_info>
				<attribute name="fused_names" version="0" value="/model.6/cv1/conv/Conv/WithoutBiases" />
			</rt_info>
			<input>
				<port id="0" precision="FP32">
					<dim>1</dim>
					<dim>128</dim>
					<dim>40</dim>
					<dim>40</dim>
				</port>
				<port id="1" precision="FP32">
					<dim>128</dim>
					<dim>128</dim>
					<dim>1</dim>
					<dim>1</dim>
				</port>
			</input>
			<output>
				<port id="2" precision="FP32">
					<dim>1</dim>
					<dim>128</dim>
					<dim>40</dim>
					<dim>40</dim>
				</port>
			</output>
		</layer>
		<layer id="225" name="Reshape_85969514086" type="Const" version="opset1">
			<data element_type="f32" shape="1, 128, 1, 1" offset="175340" size="512" />
			<rt_info>
				<attribute name="fused_names" version="0" value="Reshape_859" />
			</rt_info>
			<output>
				<port id="0" precision="FP32">
					<dim>1</dim>
					<dim>128</dim>
					<dim>1</dim>
					<dim>1</dim>
				</port>
			</output>
		</layer>
		<layer id="226" name="/model.6/cv1/conv/Conv" type="Add" version="opset1">
			<data auto_broadcast="numpy" />
			<rt_info>
				<attribute name="fused_names" version="0" value="/model.6/cv1/conv/Conv" />
			</rt_info>
			<input>
				<port id="0" precision="FP32">
					<dim>1</dim>
					<dim>128</dim>
					<dim>40</dim>
					<dim>40</dim>
				</port>
				<port id="1" precision="FP32">
					<dim>1</dim>
					<dim>128</dim>
					<dim>1</dim>
					<dim>1</dim>
				</port>
			</input>
			<output>
				<port id="2" precision="FP32" names="/model.6/cv1/conv/Conv_output_0">
					<dim>1</dim>
					<dim>128</dim>
					<dim>40</dim>
					<dim>40</dim>
				</port>
			</output>
		</layer>
		<layer id="227" name="/model.6/cv1/act/Mul" type="Swish" version="opset4">
			<rt_info>
				<attribute name="fused_names" version="0" value="/model.6/cv1/act/Mul" />
			</rt_info>
			<input>
				<port id="0" precision="FP32">
					<dim>1</dim>
					<dim>128</dim>
					<dim>40</dim>
					<dim>40</dim>
				</port>
			</input>
			<output>
				<port id="1" precision="FP32" names="/model.6/cv1/act/Mul_output_0">
					<dim>1</dim>
					<dim>128</dim>
					<dim>40</dim>
					<dim>40</dim>
				</port>
			</output>
		</layer>
		<layer id="228" name="4960496414095" type="Const" version="opset1">
			<data element_type="f32" shape="1, 1, 1, 1" offset="175852" size="4" />
			<rt_info>
				<attribute name="fused_names" version="0" value="4960496414095" />
			</rt_info>
			<output>
				<port id="0" precision="FP32">
					<dim>1</dim>
					<dim>1</dim>
					<dim>1</dim>
					<dim>1</dim>
				</port>
			</output>
		</layer>
		<layer id="229" name="4961496515283" type="Const" version="opset1">
			<data element_type="f32" shape="1, 1, 1, 1" offset="175856" size="4" />
			<rt_info>
				<attribute name="fused_names" version="0" value="4961496515283" />
			</rt_info>
			<output>
				<port id="0" precision="FP32">
					<dim>1</dim>
					<dim>1</dim>
					<dim>1</dim>
					<dim>1</dim>
				</port>
			</output>
		</layer>
		<layer id="230" name="4962496615154" type="Const" version="opset1">
			<data element_type="f32" shape="1, 1, 1, 1" offset="175852" size="4" />
			<rt_info>
				<attribute name="fused_names" version="0" value="4962496615154" />
			</rt_info>
			<output>
				<port id="0" precision="FP32">
					<dim>1</dim>
					<dim>1</dim>
					<dim>1</dim>
					<dim>1</dim>
				</port>
			</output>
		</layer>
		<layer id="231" name="4963496714941" type="Const" version="opset1">
			<data element_type="f32" shape="1, 1, 1, 1" offset="175856" size="4" />
			<rt_info>
				<attribute name="fused_names" version="0" value="4963496714941" />
			</rt_info>
			<output>
				<port id="0" precision="FP32">
					<dim>1</dim>
					<dim>1</dim>
					<dim>1</dim>
					<dim>1</dim>
				</port>
			</output>
		</layer>
		<layer id="232" name="/model.6/Split/fq_input_0" type="FakeQuantize" version="opset1">
			<data levels="256" auto_broadcast="numpy" />
			<rt_info>
				<attribute name="fused_names" version="0" value="/model.6/Split/fq_input_0" />
			</rt_info>
			<input>
				<port id="0" precision="FP32">
					<dim>1</dim>
					<dim>128</dim>
					<dim>40</dim>
					<dim>40</dim>
				</port>
				<port id="1" precision="FP32">
					<dim>1</dim>
					<dim>1</dim>
					<dim>1</dim>
					<dim>1</dim>
				</port>
				<port id="2" precision="FP32">
					<dim>1</dim>
					<dim>1</dim>
					<dim>1</dim>
					<dim>1</dim>
				</port>
				<port id="3" precision="FP32">
					<dim>1</dim>
					<dim>1</dim>
					<dim>1</dim>
					<dim>1</dim>
				</port>
				<port id="4" precision="FP32">
					<dim>1</dim>
					<dim>1</dim>
					<dim>1</dim>
					<dim>1</dim>
				</port>
			</input>
			<output>
				<port id="5" precision="FP32">
					<dim>1</dim>
					<dim>128</dim>
					<dim>40</dim>
					<dim>40</dim>
				</port>
			</output>
		</layer>
		<layer id="233" name="Constant_89069815424" type="Const" version="opset1">
			<data element_type="i64" shape="" offset="6780" size="8" />
			<rt_info>
				<attribute name="fused_names" version="0" value="Constant_890" />
			</rt_info>
			<output>
				<port id="0" precision="I64" />
			</output>
		</layer>
		<layer id="234" name="Constant_5469915196" type="Const" version="opset1">
			<data element_type="i64" shape="2" offset="175860" size="16" />
			<rt_info>
				<attribute name="fused_names" version="0" value="Constant_54" />
			</rt_info>
			<output>
				<port id="0" precision="I64" names="onnx::Split_188">
					<dim>2</dim>
				</port>
			</output>
		</layer>
		<layer id="235" name="/model.6/Split" type="VariadicSplit" version="opset1">
			<rt_info>
				<attribute name="fused_names" version="0" value="/model.6/Split" />
			</rt_info>
			<input>
				<port id="0" precision="FP32">
					<dim>1</dim>
					<dim>128</dim>
					<dim>40</dim>
					<dim>40</dim>
				</port>
				<port id="1" precision="I64" />
				<port id="2" precision="I64">
					<dim>2</dim>
				</port>
			</input>
			<output>
				<port id="3" precision="FP32" names="/model.6/Split_output_0">
					<dim>1</dim>
					<dim>64</dim>
					<dim>40</dim>
					<dim>40</dim>
				</port>
				<port id="4" precision="FP32" names="/model.6/Split_output_1">
					<dim>1</dim>
					<dim>64</dim>
					<dim>40</dim>
					<dim>40</dim>
				</port>
			</output>
		</layer>
		<layer id="236" name="model.6.m.0.cv1.conv.weight7028342/quantized1076214281" type="Const" version="opset1">
			<data element_type="i8" shape="64, 64, 3, 3" offset="175876" size="36864" />
			<rt_info>
				<attribute name="fused_names" version="0" value="model.6.m.0.cv1.conv.weight7028342/quantized1076214281" />
			</rt_info>
			<output>
				<port id="0" precision="I8">
					<dim>64</dim>
					<dim>64</dim>
					<dim>3</dim>
					<dim>3</dim>
				</port>
			</output>
		</layer>
		<layer id="237" name="model.6.m.0.cv1.conv.weight7028342/quantized/to_f32" type="Convert" version="opset1">
			<data destination_type="f32" />
			<rt_info>
				<attribute name="fused_names" version="0" value="model.6.m.0.cv1.conv.weight7028342/quantized/to_f32" />
			</rt_info>
			<input>
				<port id="0" precision="I8">
					<dim>64</dim>
					<dim>64</dim>
					<dim>3</dim>
					<dim>3</dim>
				</port>
			</input>
			<output>
				<port id="1" precision="FP32">
					<dim>64</dim>
					<dim>64</dim>
					<dim>3</dim>
					<dim>3</dim>
				</port>
			</output>
		</layer>
		<layer id="238" name="/model.6/m.0/cv1/conv/Conv/WithoutBiases/fq_weights_1/scale1077014128" type="Const" version="opset1">
			<data element_type="f32" shape="64, 1, 1, 1" offset="212740" size="256" />
			<rt_info>
				<attribute name="fused_names" version="0" value="/model.6/m.0/cv1/conv/Conv/WithoutBiases/fq_weights_1/scale1077014128" />
			</rt_info>
			<output>
				<port id="0" precision="FP32">
					<dim>64</dim>
					<dim>1</dim>
					<dim>1</dim>
					<dim>1</dim>
				</port>
			</output>
		</layer>
		<layer id="239" name="/model.6/m.0/cv1/conv/Conv/WithoutBiases/fq_weights_1/mulpiply_by_scale" type="Multiply" version="opset1">
			<data auto_broadcast="numpy" />
			<rt_info>
				<attribute name="fused_names" version="0" value="/model.6/m.0/cv1/conv/Conv/WithoutBiases/fq_weights_1/mulpiply_by_scale" />
			</rt_info>
			<input>
				<port id="0" precision="FP32">
					<dim>64</dim>
					<dim>64</dim>
					<dim>3</dim>
					<dim>3</dim>
				</port>
				<port id="1" precision="FP32">
					<dim>64</dim>
					<dim>1</dim>
					<dim>1</dim>
					<dim>1</dim>
				</port>
			</input>
			<output>
				<port id="2" precision="FP32">
					<dim>64</dim>
					<dim>64</dim>
					<dim>3</dim>
					<dim>3</dim>
				</port>
			</output>
		</layer>
		<layer id="240" name="/model.6/m.0/cv1/conv/Conv/WithoutBiases" type="Convolution" version="opset1">
			<data strides="1, 1" dilations="1, 1" pads_begin="1, 1" pads_end="1, 1" auto_pad="explicit" />
			<rt_info>
				<attribute name="fused_names" version="0" value="/model.6/m.0/cv1/conv/Conv/WithoutBiases" />
			</rt_info>
			<input>
				<port id="0" precision="FP32">
					<dim>1</dim>
					<dim>64</dim>
					<dim>40</dim>
					<dim>40</dim>
				</port>
				<port id="1" precision="FP32">
					<dim>64</dim>
					<dim>64</dim>
					<dim>3</dim>
					<dim>3</dim>
				</port>
			</input>
			<output>
				<port id="2" precision="FP32">
					<dim>1</dim>
					<dim>64</dim>
					<dim>40</dim>
					<dim>40</dim>
				</port>
			</output>
		</layer>
		<layer id="241" name="Reshape_91270414680" type="Const" version="opset1">
			<data element_type="f32" shape="1, 64, 1, 1" offset="212996" size="256" />
			<rt_info>
				<attribute name="fused_names" version="0" value="Reshape_912" />
			</rt_info>
			<output>
				<port id="0" precision="FP32">
					<dim>1</dim>
					<dim>64</dim>
					<dim>1</dim>
					<dim>1</dim>
				</port>
			</output>
		</layer>
		<layer id="242" name="/model.6/m.0/cv1/conv/Conv" type="Add" version="opset1">
			<data auto_broadcast="numpy" />
			<rt_info>
				<attribute name="fused_names" version="0" value="/model.6/m.0/cv1/conv/Conv" />
			</rt_info>
			<input>
				<port id="0" precision="FP32">
					<dim>1</dim>
					<dim>64</dim>
					<dim>40</dim>
					<dim>40</dim>
				</port>
				<port id="1" precision="FP32">
					<dim>1</dim>
					<dim>64</dim>
					<dim>1</dim>
					<dim>1</dim>
				</port>
			</input>
			<output>
				<port id="2" precision="FP32" names="/model.6/m.0/cv1/conv/Conv_output_0">
					<dim>1</dim>
					<dim>64</dim>
					<dim>40</dim>
					<dim>40</dim>
				</port>
			</output>
		</layer>
		<layer id="243" name="/model.6/m.0/cv1/act/Mul" type="Swish" version="opset4">
			<rt_info>
				<attribute name="fused_names" version="0" value="/model.6/m.0/cv1/act/Mul" />
			</rt_info>
			<input>
				<port id="0" precision="FP32">
					<dim>1</dim>
					<dim>64</dim>
					<dim>40</dim>
					<dim>40</dim>
				</port>
			</input>
			<output>
				<port id="1" precision="FP32" names="/model.6/m.0/cv1/act/Mul_output_0">
					<dim>1</dim>
					<dim>64</dim>
					<dim>40</dim>
					<dim>40</dim>
				</port>
			</output>
		</layer>
		<layer id="244" name="3276328014110" type="Const" version="opset1">
			<data element_type="f32" shape="1, 1, 1, 1" offset="5484" size="4" />
			<rt_info>
				<attribute name="fused_names" version="0" value="3276328014110" />
			</rt_info>
			<output>
				<port id="0" precision="FP32">
					<dim>1</dim>
					<dim>1</dim>
					<dim>1</dim>
					<dim>1</dim>
				</port>
			</output>
		</layer>
		<layer id="245" name="3277328115313" type="Const" version="opset1">
			<data element_type="f32" shape="1, 1, 1, 1" offset="65492" size="4" />
			<rt_info>
				<attribute name="fused_names" version="0" value="3277328115313" />
			</rt_info>
			<output>
				<port id="0" precision="FP32">
					<dim>1</dim>
					<dim>1</dim>
					<dim>1</dim>
					<dim>1</dim>
				</port>
			</output>
		</layer>
		<layer id="246" name="3278328215277" type="Const" version="opset1">
			<data element_type="f32" shape="1, 1, 1, 1" offset="5484" size="4" />
			<rt_info>
				<attribute name="fused_names" version="0" value="3278328215277" />
			</rt_info>
			<output>
				<port id="0" precision="FP32">
					<dim>1</dim>
					<dim>1</dim>
					<dim>1</dim>
					<dim>1</dim>
				</port>
			</output>
		</layer>
		<layer id="247" name="3279328315577" type="Const" version="opset1">
			<data element_type="f32" shape="1, 1, 1, 1" offset="65492" size="4" />
			<rt_info>
				<attribute name="fused_names" version="0" value="3279328315577" />
			</rt_info>
			<output>
				<port id="0" precision="FP32">
					<dim>1</dim>
					<dim>1</dim>
					<dim>1</dim>
					<dim>1</dim>
				</port>
			</output>
		</layer>
		<layer id="248" name="/model.6/m.0/cv2/conv/Conv/WithoutBiases/fq_input_0" type="FakeQuantize" version="opset1">
			<data levels="256" auto_broadcast="numpy" />
			<rt_info>
				<attribute name="fused_names" version="0" value="/model.6/m.0/cv2/conv/Conv/WithoutBiases/fq_input_0" />
			</rt_info>
			<input>
				<port id="0" precision="FP32">
					<dim>1</dim>
					<dim>64</dim>
					<dim>40</dim>
					<dim>40</dim>
				</port>
				<port id="1" precision="FP32">
					<dim>1</dim>
					<dim>1</dim>
					<dim>1</dim>
					<dim>1</dim>
				</port>
				<port id="2" precision="FP32">
					<dim>1</dim>
					<dim>1</dim>
					<dim>1</dim>
					<dim>1</dim>
				</port>
				<port id="3" precision="FP32">
					<dim>1</dim>
					<dim>1</dim>
					<dim>1</dim>
					<dim>1</dim>
				</port>
				<port id="4" precision="FP32">
					<dim>1</dim>
					<dim>1</dim>
					<dim>1</dim>
					<dim>1</dim>
				</port>
			</input>
			<output>
				<port id="5" precision="FP32">
					<dim>1</dim>
					<dim>64</dim>
					<dim>40</dim>
					<dim>40</dim>
				</port>
			</output>
		</layer>
		<layer id="249" name="model.6.m.0.cv2.conv.weight7078344/quantized1070214599" type="Const" version="opset1">
			<data element_type="i8" shape="64, 64, 3, 3" offset="213252" size="36864" />
			<rt_info>
				<attribute name="fused_names" version="0" value="model.6.m.0.cv2.conv.weight7078344/quantized1070214599" />
			</rt_info>
			<output>
				<port id="0" precision="I8">
					<dim>64</dim>
					<dim>64</dim>
					<dim>3</dim>
					<dim>3</dim>
				</port>
			</output>
		</layer>
		<layer id="250" name="model.6.m.0.cv2.conv.weight7078344/quantized/to_f32" type="Convert" version="opset1">
			<data destination_type="f32" />
			<rt_info>
				<attribute name="fused_names" version="0" value="model.6.m.0.cv2.conv.weight7078344/quantized/to_f32" />
			</rt_info>
			<input>
				<port id="0" precision="I8">
					<dim>64</dim>
					<dim>64</dim>
					<dim>3</dim>
					<dim>3</dim>
				</port>
			</input>
			<output>
				<port id="1" precision="FP32">
					<dim>64</dim>
					<dim>64</dim>
					<dim>3</dim>
					<dim>3</dim>
				</port>
			</output>
		</layer>
		<layer id="251" name="/model.6/m.0/cv2/conv/Conv/WithoutBiases/fq_weights_1/scale1071015538" type="Const" version="opset1">
			<data element_type="f32" shape="64, 1, 1, 1" offset="250116" size="256" />
			<rt_info>
				<attribute name="fused_names" version="0" value="/model.6/m.0/cv2/conv/Conv/WithoutBiases/fq_weights_1/scale1071015538" />
			</rt_info>
			<output>
				<port id="0" precision="FP32">
					<dim>64</dim>
					<dim>1</dim>
					<dim>1</dim>
					<dim>1</dim>
				</port>
			</output>
		</layer>
		<layer id="252" name="/model.6/m.0/cv2/conv/Conv/WithoutBiases/fq_weights_1/mulpiply_by_scale" type="Multiply" version="opset1">
			<data auto_broadcast="numpy" />
			<rt_info>
				<attribute name="fused_names" version="0" value="/model.6/m.0/cv2/conv/Conv/WithoutBiases/fq_weights_1/mulpiply_by_scale" />
			</rt_info>
			<input>
				<port id="0" precision="FP32">
					<dim>64</dim>
					<dim>64</dim>
					<dim>3</dim>
					<dim>3</dim>
				</port>
				<port id="1" precision="FP32">
					<dim>64</dim>
					<dim>1</dim>
					<dim>1</dim>
					<dim>1</dim>
				</port>
			</input>
			<output>
				<port id="2" precision="FP32">
					<dim>64</dim>
					<dim>64</dim>
					<dim>3</dim>
					<dim>3</dim>
				</port>
			</output>
		</layer>
		<layer id="253" name="/model.6/m.0/cv2/conv/Conv/WithoutBiases" type="Convolution" version="opset1">
			<data strides="1, 1" dilations="1, 1" pads_begin="1, 1" pads_end="1, 1" auto_pad="explicit" />
			<rt_info>
				<attribute name="fused_names" version="0" value="/model.6/m.0/cv2/conv/Conv/WithoutBiases" />
			</rt_info>
			<input>
				<port id="0" precision="FP32">
					<dim>1</dim>
					<dim>64</dim>
					<dim>40</dim>
					<dim>40</dim>
				</port>
				<port id="1" precision="FP32">
					<dim>64</dim>
					<dim>64</dim>
					<dim>3</dim>
					<dim>3</dim>
				</port>
			</input>
			<output>
				<port id="2" precision="FP32">
					<dim>1</dim>
					<dim>64</dim>
					<dim>40</dim>
					<dim>40</dim>
				</port>
			</output>
		</layer>
		<layer id="254" name="Reshape_96270914863" type="Const" version="opset1">
			<data element_type="f32" shape="1, 64, 1, 1" offset="250372" size="256" />
			<rt_info>
				<attribute name="fused_names" version="0" value="Reshape_962" />
			</rt_info>
			<output>
				<port id="0" precision="FP32">
					<dim>1</dim>
					<dim>64</dim>
					<dim>1</dim>
					<dim>1</dim>
				</port>
			</output>
		</layer>
		<layer id="255" name="/model.6/m.0/cv2/conv/Conv" type="Add" version="opset1">
			<data auto_broadcast="numpy" />
			<rt_info>
				<attribute name="fused_names" version="0" value="/model.6/m.0/cv2/conv/Conv" />
			</rt_info>
			<input>
				<port id="0" precision="FP32">
					<dim>1</dim>
					<dim>64</dim>
					<dim>40</dim>
					<dim>40</dim>
				</port>
				<port id="1" precision="FP32">
					<dim>1</dim>
					<dim>64</dim>
					<dim>1</dim>
					<dim>1</dim>
				</port>
			</input>
			<output>
				<port id="2" precision="FP32" names="/model.6/m.0/cv2/conv/Conv_output_0">
					<dim>1</dim>
					<dim>64</dim>
					<dim>40</dim>
					<dim>40</dim>
				</port>
			</output>
		</layer>
		<layer id="256" name="/model.6/m.0/cv2/act/Mul" type="Swish" version="opset4">
			<rt_info>
				<attribute name="fused_names" version="0" value="/model.6/m.0/cv2/act/Mul" />
			</rt_info>
			<input>
				<port id="0" precision="FP32">
					<dim>1</dim>
					<dim>64</dim>
					<dim>40</dim>
					<dim>40</dim>
				</port>
			</input>
			<output>
				<port id="1" precision="FP32" names="/model.6/m.0/cv2/act/Mul_output_0">
					<dim>1</dim>
					<dim>64</dim>
					<dim>40</dim>
					<dim>40</dim>
				</port>
			</output>
		</layer>
		<layer id="257" name="3006301014998" type="Const" version="opset1">
			<data element_type="f32" shape="1, 1, 1, 1" offset="250628" size="4" />
			<rt_info>
				<attribute name="fused_names" version="0" value="3006301014998" />
			</rt_info>
			<output>
				<port id="0" precision="FP32">
					<dim>1</dim>
					<dim>1</dim>
					<dim>1</dim>
					<dim>1</dim>
				</port>
			</output>
		</layer>
		<layer id="258" name="3007301114545" type="Const" version="opset1">
			<data element_type="f32" shape="1, 1, 1, 1" offset="250632" size="4" />
			<rt_info>
				<attribute name="fused_names" version="0" value="3007301114545" />
			</rt_info>
			<output>
				<port id="0" precision="FP32">
					<dim>1</dim>
					<dim>1</dim>
					<dim>1</dim>
					<dim>1</dim>
				</port>
			</output>
		</layer>
		<layer id="259" name="3008301214923" type="Const" version="opset1">
			<data element_type="f32" shape="1, 1, 1, 1" offset="250628" size="4" />
			<rt_info>
				<attribute name="fused_names" version="0" value="3008301214923" />
			</rt_info>
			<output>
				<port id="0" precision="FP32">
					<dim>1</dim>
					<dim>1</dim>
					<dim>1</dim>
					<dim>1</dim>
				</port>
			</output>
		</layer>
		<layer id="260" name="3009301315376" type="Const" version="opset1">
			<data element_type="f32" shape="1, 1, 1, 1" offset="250632" size="4" />
			<rt_info>
				<attribute name="fused_names" version="0" value="3009301315376" />
			</rt_info>
			<output>
				<port id="0" precision="FP32">
					<dim>1</dim>
					<dim>1</dim>
					<dim>1</dim>
					<dim>1</dim>
				</port>
			</output>
		</layer>
		<layer id="261" name="/model.6/m.0/Add/fq_input_1" type="FakeQuantize" version="opset1">
			<data levels="256" auto_broadcast="numpy" />
			<rt_info>
				<attribute name="fused_names" version="0" value="/model.6/m.0/Add/fq_input_1" />
			</rt_info>
			<input>
				<port id="0" precision="FP32">
					<dim>1</dim>
					<dim>64</dim>
					<dim>40</dim>
					<dim>40</dim>
				</port>
				<port id="1" precision="FP32">
					<dim>1</dim>
					<dim>1</dim>
					<dim>1</dim>
					<dim>1</dim>
				</port>
				<port id="2" precision="FP32">
					<dim>1</dim>
					<dim>1</dim>
					<dim>1</dim>
					<dim>1</dim>
				</port>
				<port id="3" precision="FP32">
					<dim>1</dim>
					<dim>1</dim>
					<dim>1</dim>
					<dim>1</dim>
				</port>
				<port id="4" precision="FP32">
					<dim>1</dim>
					<dim>1</dim>
					<dim>1</dim>
					<dim>1</dim>
				</port>
			</input>
			<output>
				<port id="5" precision="FP32">
					<dim>1</dim>
					<dim>64</dim>
					<dim>40</dim>
					<dim>40</dim>
				</port>
			</output>
		</layer>
		<layer id="262" name="/model.6/m.0/Add" type="Add" version="opset1">
			<data auto_broadcast="numpy" />
			<rt_info>
				<attribute name="fused_names" version="0" value="/model.6/m.0/Add" />
			</rt_info>
			<input>
				<port id="0" precision="FP32">
					<dim>1</dim>
					<dim>64</dim>
					<dim>40</dim>
					<dim>40</dim>
				</port>
				<port id="1" precision="FP32">
					<dim>1</dim>
					<dim>64</dim>
					<dim>40</dim>
					<dim>40</dim>
				</port>
			</input>
			<output>
				<port id="2" precision="FP32" names="/model.6/m.0/Add_output_0">
					<dim>1</dim>
					<dim>64</dim>
					<dim>40</dim>
					<dim>40</dim>
				</port>
			</output>
		</layer>
		<layer id="263" name="4940494414995" type="Const" version="opset1">
			<data element_type="f32" shape="1, 1, 1, 1" offset="175852" size="4" />
			<rt_info>
				<attribute name="fused_names" version="0" value="4940494414995" />
			</rt_info>
			<output>
				<port id="0" precision="FP32">
					<dim>1</dim>
					<dim>1</dim>
					<dim>1</dim>
					<dim>1</dim>
				</port>
			</output>
		</layer>
		<layer id="264" name="4941494515595" type="Const" version="opset1">
			<data element_type="f32" shape="1, 1, 1, 1" offset="175856" size="4" />
			<rt_info>
				<attribute name="fused_names" version="0" value="4941494515595" />
			</rt_info>
			<output>
				<port id="0" precision="FP32">
					<dim>1</dim>
					<dim>1</dim>
					<dim>1</dim>
					<dim>1</dim>
				</port>
			</output>
		</layer>
		<layer id="265" name="4942494614677" type="Const" version="opset1">
			<data element_type="f32" shape="1, 1, 1, 1" offset="175852" size="4" />
			<rt_info>
				<attribute name="fused_names" version="0" value="4942494614677" />
			</rt_info>
			<output>
				<port id="0" precision="FP32">
					<dim>1</dim>
					<dim>1</dim>
					<dim>1</dim>
					<dim>1</dim>
				</port>
			</output>
		</layer>
		<layer id="266" name="4943494714146" type="Const" version="opset1">
			<data element_type="f32" shape="1, 1, 1, 1" offset="175856" size="4" />
			<rt_info>
				<attribute name="fused_names" version="0" value="4943494714146" />
			</rt_info>
			<output>
				<port id="0" precision="FP32">
					<dim>1</dim>
					<dim>1</dim>
					<dim>1</dim>
					<dim>1</dim>
				</port>
			</output>
		</layer>
		<layer id="267" name="/model.6/Concat/fq_input_2" type="FakeQuantize" version="opset1">
			<data levels="256" auto_broadcast="numpy" />
			<rt_info>
				<attribute name="fused_names" version="0" value="/model.6/Concat/fq_input_2" />
			</rt_info>
			<input>
				<port id="0" precision="FP32">
					<dim>1</dim>
					<dim>64</dim>
					<dim>40</dim>
					<dim>40</dim>
				</port>
				<port id="1" precision="FP32">
					<dim>1</dim>
					<dim>1</dim>
					<dim>1</dim>
					<dim>1</dim>
				</port>
				<port id="2" precision="FP32">
					<dim>1</dim>
					<dim>1</dim>
					<dim>1</dim>
					<dim>1</dim>
				</port>
				<port id="3" precision="FP32">
					<dim>1</dim>
					<dim>1</dim>
					<dim>1</dim>
					<dim>1</dim>
				</port>
				<port id="4" precision="FP32">
					<dim>1</dim>
					<dim>1</dim>
					<dim>1</dim>
					<dim>1</dim>
				</port>
			</input>
			<output>
				<port id="5" precision="FP32">
					<dim>1</dim>
					<dim>64</dim>
					<dim>40</dim>
					<dim>40</dim>
				</port>
			</output>
		</layer>
		<layer id="268" name="model.6.m.1.cv1.conv.weight7138346/quantized1013214059" type="Const" version="opset1">
			<data element_type="i8" shape="64, 64, 3, 3" offset="250636" size="36864" />
			<rt_info>
				<attribute name="fused_names" version="0" value="model.6.m.1.cv1.conv.weight7138346/quantized1013214059" />
			</rt_info>
			<output>
				<port id="0" precision="I8">
					<dim>64</dim>
					<dim>64</dim>
					<dim>3</dim>
					<dim>3</dim>
				</port>
			</output>
		</layer>
		<layer id="269" name="model.6.m.1.cv1.conv.weight7138346/quantized/to_f32" type="Convert" version="opset1">
			<data destination_type="f32" />
			<rt_info>
				<attribute name="fused_names" version="0" value="model.6.m.1.cv1.conv.weight7138346/quantized/to_f32" />
			</rt_info>
			<input>
				<port id="0" precision="I8">
					<dim>64</dim>
					<dim>64</dim>
					<dim>3</dim>
					<dim>3</dim>
				</port>
			</input>
			<output>
				<port id="1" precision="FP32">
					<dim>64</dim>
					<dim>64</dim>
					<dim>3</dim>
					<dim>3</dim>
				</port>
			</output>
		</layer>
		<layer id="270" name="/model.6/m.1/cv1/conv/Conv/WithoutBiases/fq_weights_1/scale1014014302" type="Const" version="opset1">
			<data element_type="f32" shape="64, 1, 1, 1" offset="287500" size="256" />
			<rt_info>
…
		<edge from-layer="495" from-port="0" to-layer="496" to-port="4" />
		<edge from-layer="496" from-port="5" to-layer="497" to-port="0" />
		<edge from-layer="497" from-port="2" to-layer="502" to-port="0" />
		<edge from-layer="498" from-port="0" to-layer="499" to-port="0" />
		<edge from-layer="499" from-port="1" to-layer="501" to-port="0" />
		<edge from-layer="500" from-port="0" to-layer="501" to-port="1" />
		<edge from-layer="501" from-port="2" to-layer="502" to-port="1" />
		<edge from-layer="502" from-port="2" to-layer="504" to-port="0" />
		<edge from-layer="503" from-port="0" to-layer="504" to-port="1" />
		<edge from-layer="504" from-port="2" to-layer="505" to-port="0" />
		<edge from-layer="505" from-port="1" to-layer="510" to-port="0" />
		<edge from-layer="506" from-port="0" to-layer="510" to-port="1" />
		<edge from-layer="507" from-port="0" to-layer="510" to-port="2" />
		<edge from-layer="508" from-port="0" to-layer="510" to-port="3" />
		<edge from-layer="509" from-port="0" to-layer="510" to-port="4" />
		<edge from-layer="510" from-port="5" to-layer="512" to-port="0" />
		<edge from-layer="511" from-port="0" to-layer="512" to-port="1" />
		<edge from-layer="512" from-port="4" to-layer="539" to-port="1" />
		<edge from-layer="512" from-port="3" to-layer="539" to-port="0" />
		<edge from-layer="512" from-port="4" to-layer="517" to-port="0" />
		<edge from-layer="513" from-port="0" to-layer="514" to-port="0" />
		<edge from-layer="514" from-port="1" to-layer="516" to-port="0" />
		<edge from-layer="515" from-port="0" to-layer="516" to-port="1" />
		<edge from-layer="516" from-port="2" to-layer="517" to-port="1" />
		<edge from-layer="517" from-port="2" to-layer="519" to-port="0" />
		<edge from-layer="518" from-port="0" to-layer="519" to-port="1" />
		<edge from-layer="519" from-port="2" to-layer="520" to-port="0" />
		<edge from-layer="520" from-port="1" to-layer="525" to-port="0" />
		<edge from-layer="521" from-port="0" to-layer="525" to-port="1" />
		<edge from-layer="522" from-port="0" to-layer="525" to-port="2" />
		<edge from-layer="523" from-port="0" to-layer="525" to-port="3" />
		<edge from-layer="524" from-port="0" to-layer="525" to-port="4" />
		<edge from-layer="525" from-port="5" to-layer="530" to-port="0" />
		<edge from-layer="526" from-port="0" to-layer="527" to-port="0" />
		<edge from-layer="527" from-port="1" to-layer="529" to-port="0" />
		<edge from-layer="528" from-port="0" to-layer="529" to-port="1" />
		<edge from-layer="529" from-port="2" to-layer="530" to-port="1" />
		<edge from-layer="530" from-port="2" to-layer="532" to-port="0" />
		<edge from-layer="531" from-port="0" to-layer="532" to-port="1" />
		<edge from-layer="532" from-port="2" to-layer="533" to-port="0" />
		<edge from-layer="533" from-port="1" to-layer="538" to-port="0" />
		<edge from-layer="534" from-port="0" to-layer="538" to-port="1" />
		<edge from-layer="535" from-port="0" to-layer="538" to-port="2" />
		<edge from-layer="536" from-port="0" to-layer="538" to-port="3" />
		<edge from-layer="537" from-port="0" to-layer="538" to-port="4" />
		<edge from-layer="538" from-port="5" to-layer="539" to-port="2" />
		<edge from-layer="539" from-port="3" to-layer="544" to-port="0" />
		<edge from-layer="540" from-port="0" to-layer="541" to-port="0" />
		<edge from-layer="541" from-port="1" to-layer="543" to-port="0" />
		<edge from-layer="542" from-port="0" to-layer="543" to-port="1" />
		<edge from-layer="543" from-port="2" to-layer="544" to-port="1" />
		<edge from-layer="544" from-port="2" to-layer="546" to-port="0" />
		<edge from-layer="545" from-port="0" to-layer="546" to-port="1" />
		<edge from-layer="546" from-port="2" to-layer="547" to-port="0" />
		<edge from-layer="547" from-port="1" to-layer="1019" to-port="0" />
		<edge from-layer="547" from-port="1" to-layer="552" to-port="0" />
		<edge from-layer="548" from-port="0" to-layer="552" to-port="1" />
		<edge from-layer="549" from-port="0" to-layer="552" to-port="2" />
		<edge from-layer="550" from-port="0" to-layer="552" to-port="3" />
		<edge from-layer="551" from-port="0" to-layer="552" to-port="4" />
		<edge from-layer="552" from-port="5" to-layer="665" to-port="0" />
		<edge from-layer="552" from-port="5" to-layer="590" to-port="0" />
		<edge from-layer="552" from-port="5" to-layer="557" to-port="0" />
		<edge from-layer="553" from-port="0" to-layer="554" to-port="0" />
		<edge from-layer="554" from-port="1" to-layer="556" to-port="0" />
		<edge from-layer="555" from-port="0" to-layer="556" to-port="1" />
		<edge from-layer="556" from-port="2" to-layer="557" to-port="1" />
		<edge from-layer="557" from-port="2" to-layer="559" to-port="0" />
		<edge from-layer="558" from-port="0" to-layer="559" to-port="1" />
		<edge from-layer="559" from-port="2" to-layer="560" to-port="0" />
		<edge from-layer="560" from-port="1" to-layer="565" to-port="0" />
		<edge from-layer="561" from-port="0" to-layer="565" to-port="1" />
		<edge from-layer="562" from-port="0" to-layer="565" to-port="2" />
		<edge from-layer="563" from-port="0" to-layer="565" to-port="3" />
		<edge from-layer="564" from-port="0" to-layer="565" to-port="4" />
		<edge from-layer="565" from-port="5" to-layer="570" to-port="0" />
		<edge from-layer="566" from-port="0" to-layer="567" to-port="0" />
		<edge from-layer="567" from-port="1" to-layer="569" to-port="0" />
		<edge from-layer="568" from-port="0" to-layer="569" to-port="1" />
		<edge from-layer="569" from-port="2" to-layer="570" to-port="1" />
		<edge from-layer="570" from-port="2" to-layer="572" to-port="0" />
		<edge from-layer="571" from-port="0" to-layer="572" to-port="1" />
		<edge from-layer="572" from-port="2" to-layer="573" to-port="0" />
		<edge from-layer="573" from-port="1" to-layer="578" to-port="0" />
		<edge from-layer="574" from-port="0" to-layer="578" to-port="1" />
		<edge from-layer="575" from-port="0" to-layer="578" to-port="2" />
		<edge from-layer="576" from-port="0" to-layer="578" to-port="3" />
		<edge from-layer="577" from-port="0" to-layer="578" to-port="4" />
		<edge from-layer="578" from-port="5" to-layer="583" to-port="0" />
		<edge from-layer="579" from-port="0" to-layer="580" to-port="0" />
		<edge from-layer="580" from-port="1" to-layer="582" to-port="0" />
		<edge from-layer="581" from-port="0" to-layer="582" to-port="1" />
		<edge from-layer="582" from-port="2" to-layer="583" to-port="1" />
		<edge from-layer="583" from-port="2" to-layer="585" to-port="0" />
		<edge from-layer="584" from-port="0" to-layer="585" to-port="1" />
		<edge from-layer="585" from-port="2" to-layer="619" to-port="0" />
		<edge from-layer="586" from-port="0" to-layer="587" to-port="0" />
		<edge from-layer="587" from-port="1" to-layer="589" to-port="0" />
		<edge from-layer="588" from-port="0" to-layer="589" to-port="1" />
		<edge from-layer="589" from-port="2" to-layer="590" to-port="1" />
		<edge from-layer="590" from-port="2" to-layer="592" to-port="0" />
		<edge from-layer="591" from-port="0" to-layer="592" to-port="1" />
		<edge from-layer="592" from-port="2" to-layer="593" to-port="0" />
		<edge from-layer="593" from-port="1" to-layer="598" to-port="0" />
		<edge from-layer="594" from-port="0" to-layer="598" to-port="1" />
		<edge from-layer="595" from-port="0" to-layer="598" to-port="2" />
		<edge from-layer="596" from-port="0" to-layer="598" to-port="3" />
		<edge from-layer="597" from-port="0" to-layer="598" to-port="4" />
		<edge from-layer="598" from-port="5" to-layer="603" to-port="0" />
		<edge from-layer="599" from-port="0" to-layer="600" to-port="0" />
		<edge from-layer="600" from-port="1" to-layer="602" to-port="0" />
		<edge from-layer="601" from-port="0" to-layer="602" to-port="1" />
		<edge from-layer="602" from-port="2" to-layer="603" to-port="1" />
		<edge from-layer="603" from-port="2" to-layer="605" to-port="0" />
		<edge from-layer="604" from-port="0" to-layer="605" to-port="1" />
		<edge from-layer="605" from-port="2" to-layer="606" to-port="0" />
		<edge from-layer="606" from-port="1" to-layer="611" to-port="0" />
		<edge from-layer="607" from-port="0" to-layer="611" to-port="1" />
		<edge from-layer="608" from-port="0" to-layer="611" to-port="2" />
		<edge from-layer="609" from-port="0" to-layer="611" to-port="3" />
		<edge from-layer="610" from-port="0" to-layer="611" to-port="4" />
		<edge from-layer="611" from-port="5" to-layer="616" to-port="0" />
		<edge from-layer="612" from-port="0" to-layer="613" to-port="0" />
		<edge from-layer="613" from-port="1" to-layer="615" to-port="0" />
		<edge from-layer="614" from-port="0" to-layer="615" to-port="1" />
		<edge from-layer="615" from-port="2" to-layer="616" to-port="1" />
		<edge from-layer="616" from-port="2" to-layer="618" to-port="0" />
		<edge from-layer="617" from-port="0" to-layer="618" to-port="1" />
		<edge from-layer="618" from-port="2" to-layer="619" to-port="1" />
		<edge from-layer="619" from-port="2" to-layer="1026" to-port="0" />
		<edge from-layer="619" from-port="2" to-layer="620" to-port="0" />
		<edge from-layer="620" from-port="1" to-layer="623" to-port="0" />
		<edge from-layer="620" from-port="1" to-layer="638" to-port="0" />
		<edge from-layer="621" from-port="0" to-layer="623" to-port="1" />
		<edge from-layer="622" from-port="0" to-layer="623" to-port="2" />
		<edge from-layer="623" from-port="3" to-layer="624" to-port="0" />
		<edge from-layer="623" from-port="3" to-layer="1113" to-port="1" />
		<edge from-layer="624" from-port="1" to-layer="626" to-port="1" />
		<edge from-layer="625" from-port="0" to-layer="626" to-port="2" />
		<edge from-layer="626" from-port="3" to-layer="628" to-port="0" />
		<edge from-layer="627" from-port="0" to-layer="628" to-port="1" />
		<edge from-layer="628" from-port="2" to-layer="630" to-port="0" />
		<edge from-layer="629" from-port="0" to-layer="630" to-port="1" />
		<edge from-layer="630" from-port="2" to-layer="632" to-port="0" />
		<edge from-layer="630" from-port="2" to-layer="634" to-port="0" />
		<edge from-layer="631" from-port="0" to-layer="633" to-port="0" />
		<edge from-layer="632" from-port="1" to-layer="647" to-port="1" />
		<edge from-layer="632" from-port="1" to-layer="633" to-port="1" />
		<edge from-layer="633" from-port="2" to-layer="634" to-port="1" />
		<edge from-layer="634" from-port="2" to-layer="648" to-port="0" />
		<edge from-layer="635" from-port="0" to-layer="641" to-port="0" />
		<edge from-layer="636" from-port="0" to-layer="638" to-port="1" />
		<edge from-layer="637" from-port="0" to-layer="638" to-port="2" />
		<edge from-layer="638" from-port="3" to-layer="1113" to-port="0" />
		<edge from-layer="638" from-port="3" to-layer="639" to-port="0" />
		<edge from-layer="639" from-port="1" to-layer="641" to-port="1" />
		<edge from-layer="640" from-port="0" to-layer="641" to-port="2" />
		<edge from-layer="641" from-port="3" to-layer="643" to-port="0" />
		<edge from-layer="642" from-port="0" to-layer="643" to-port="1" />
		<edge from-layer="643" from-port="2" to-layer="645" to-port="0" />
		<edge from-layer="644" from-port="0" to-layer="645" to-port="1" />
		<edge from-layer="645" from-port="2" to-layer="653" to-port="0" />
		<edge from-layer="645" from-port="2" to-layer="646" to-port="0" />
		<edge from-layer="646" from-port="1" to-layer="652" to-port="0" />
		<edge from-layer="646" from-port="1" to-layer="647" to-port="0" />
		<edge from-layer="647" from-port="2" to-layer="654" to-port="1" />
		<edge from-layer="647" from-port="2" to-layer="648" to-port="1" />
		<edge from-layer="648" from-port="2" to-layer="650" to-port="0" />
		<edge from-layer="649" from-port="0" to-layer="650" to-port="1" />
		<edge from-layer="650" from-port="2" to-layer="657" to-port="0" />
		<edge from-layer="651" from-port="0" to-layer="652" to-port="1" />
		<edge from-layer="652" from-port="2" to-layer="653" to-port="1" />
		<edge from-layer="653" from-port="2" to-layer="654" to-port="0" />
		<edge from-layer="654" from-port="2" to-layer="656" to-port="0" />
		<edge from-layer="655" from-port="0" to-layer="656" to-port="1" />
		<edge from-layer="656" from-port="2" to-layer="657" to-port="1" />
		<edge from-layer="657" from-port="2" to-layer="659" to-port="0" />
		<edge from-layer="658" from-port="0" to-layer="659" to-port="1" />
		<edge from-layer="659" from-port="2" to-layer="1014" to-port="0" />
		<edge from-layer="660" from-port="0" to-layer="803" to-port="0" />
		<edge from-layer="661" from-port="0" to-layer="662" to-port="0" />
		<edge from-layer="662" from-port="1" to-layer="664" to-port="0" />
		<edge from-layer="663" from-port="0" to-layer="664" to-port="1" />
		<edge from-layer="664" from-port="2" to-layer="665" to-port="1" />
		<edge from-layer="665" from-port="2" to-layer="667" to-port="0" />
		<edge from-layer="666" from-port="0" to-layer="667" to-port="1" />
		<edge from-layer="667" from-port="2" to-layer="668" to-port="0" />
		<edge from-layer="668" from-port="1" to-layer="673" to-port="0" />
		<edge from-layer="669" from-port="0" to-layer="673" to-port="1" />
		<edge from-layer="670" from-port="0" to-layer="673" to-port="2" />
		<edge from-layer="671" from-port="0" to-layer="673" to-port="3" />
		<edge from-layer="672" from-port="0" to-layer="673" to-port="4" />
		<edge from-layer="673" from-port="5" to-layer="674" to-port="0" />
		<edge from-layer="674" from-port="2" to-layer="679" to-port="0" />
		<edge from-layer="675" from-port="0" to-layer="676" to-port="0" />
		<edge from-layer="676" from-port="1" to-layer="678" to-port="0" />
		<edge from-layer="677" from-port="0" to-layer="678" to-port="1" />
		<edge from-layer="678" from-port="2" to-layer="679" to-port="1" />
		<edge from-layer="679" from-port="2" to-layer="681" to-port="0" />
		<edge from-layer="680" from-port="0" to-layer="681" to-port="1" />
		<edge from-layer="681" from-port="2" to-layer="682" to-port="0" />
		<edge from-layer="682" from-port="1" to-layer="687" to-port="0" />
		<edge from-layer="683" from-port="0" to-layer="687" to-port="1" />
		<edge from-layer="684" from-port="0" to-layer="687" to-port="2" />
		<edge from-layer="685" from-port="0" to-layer="687" to-port="3" />
		<edge from-layer="686" from-port="0" to-layer="687" to-port="4" />
		<edge from-layer="687" from-port="5" to-layer="689" to-port="0" />
		<edge from-layer="688" from-port="0" to-layer="689" to-port="1" />
		<edge from-layer="689" from-port="4" to-layer="694" to-port="0" />
		<edge from-layer="689" from-port="4" to-layer="716" to-port="1" />
		<edge from-layer="689" from-port="3" to-layer="716" to-port="0" />
		<edge from-layer="690" from-port="0" to-layer="691" to-port="0" />
		<edge from-layer="691" from-port="1" to-layer="693" to-port="0" />
		<edge from-layer="692" from-port="0" to-layer="693" to-port="1" />
		<edge from-layer="693" from-port="2" to-layer="694" to-port="1" />
		<edge from-layer="694" from-port="2" to-layer="696" to-port="0" />
		<edge from-layer="695" from-port="0" to-layer="696" to-port="1" />
		<edge from-layer="696" from-port="2" to-layer="697" to-port="0" />
		<edge from-layer="697" from-port="1" to-layer="702" to-port="0" />
		<edge from-layer="698" from-port="0" to-layer="702" to-port="1" />
		<edge from-layer="699" from-port="0" to-layer="702" to-port="2" />
		<edge from-layer="700" from-port="0" to-layer="702" to-port="3" />
		<edge from-layer="701" from-port="0" to-layer="702" to-port="4" />
		<edge from-layer="702" from-port="5" to-layer="707" to-port="0" />
		<edge from-layer="703" from-port="0" to-layer="704" to-port="0" />
		<edge from-layer="704" from-port="1" to-layer="706" to-port="0" />
		<edge from-layer="705" from-port="0" to-layer="706" to-port="1" />
		<edge from-layer="706" from-port="2" to-layer="707" to-port="1" />
		<edge from-layer="707" from-port="2" to-layer="709" to-port="0" />
		<edge from-layer="708" from-port="0" to-layer="709" to-port="1" />
		<edge from-layer="709" from-port="2" to-layer="710" to-port="0" />
		<edge from-layer="710" from-port="1" to-layer="715" to-port="0" />
		<edge from-layer="711" from-port="0" to-layer="715" to-port="1" />
		<edge from-layer="712" from-port="0" to-layer="715" to-port="2" />
		<edge from-layer="713" from-port="0" to-layer="715" to-port="3" />
		<edge from-layer="714" from-port="0" to-layer="715" to-port="4" />
		<edge from-layer="715" from-port="5" to-layer="716" to-port="2" />
		<edge from-layer="716" from-port="3" to-layer="721" to-port="0" />
		<edge from-layer="717" from-port="0" to-layer="718" to-port="0" />
		<edge from-layer="718" from-port="1" to-layer="720" to-port="0" />
		<edge from-layer="719" from-port="0" to-layer="720" to-port="1" />
		<edge from-layer="720" from-port="2" to-layer="721" to-port="1" />
		<edge from-layer="721" from-port="2" to-layer="723" to-port="0" />
		<edge from-layer="722" from-port="0" to-layer="723" to-port="1" />
		<edge from-layer="723" from-port="2" to-layer="724" to-port="0" />
		<edge from-layer="724" from-port="1" to-layer="729" to-port="0" />
		<edge from-layer="725" from-port="0" to-layer="729" to-port="1" />
		<edge from-layer="726" from-port="0" to-layer="729" to-port="2" />
		<edge from-layer="727" from-port="0" to-layer="729" to-port="3" />
		<edge from-layer="728" from-port="0" to-layer="729" to-port="4" />
		<edge from-layer="729" from-port="5" to-layer="767" to-port="0" />
		<edge from-layer="729" from-port="5" to-layer="734" to-port="0" />
		<edge from-layer="729" from-port="5" to-layer="842" to-port="0" />
		<edge from-layer="730" from-port="0" to-layer="731" to-port="0" />
		<edge from-layer="731" from-port="1" to-layer="733" to-port="0" />
		<edge from-layer="732" from-port="0" to-layer="733" to-port="1" />
		<edge from-layer="733" from-port="2" to-layer="734" to-port="1" />
		<edge from-layer="734" from-port="2" to-layer="736" to-port="0" />
		<edge from-layer="735" from-port="0" to-layer="736" to-port="1" />
		<edge from-layer="736" from-port="2" to-layer="737" to-port="0" />
		<edge from-layer="737" from-port="1" to-layer="742" to-port="0" />
		<edge from-layer="738" from-port="0" to-layer="742" to-port="1" />
		<edge from-layer="739" from-port="0" to-layer="742" to-port="2" />
		<edge from-layer="740" from-port="0" to-layer="742" to-port="3" />
		<edge from-layer="741" from-port="0" to-layer="742" to-port="4" />
		<edge from-layer="742" from-port="5" to-layer="747" to-port="0" />
		<edge from-layer="743" from-port="0" to-layer="744" to-port="0" />
		<edge from-layer="744" from-port="1" to-layer="746" to-port="0" />
		<edge from-layer="745" from-port="0" to-layer="746" to-port="1" />
		<edge from-layer="746" from-port="2" to-layer="747" to-port="1" />
		<edge from-layer="747" from-port="2" to-layer="749" to-port="0" />
		<edge from-layer="748" from-port="0" to-layer="749" to-port="1" />
		<edge from-layer="749" from-port="2" to-layer="750" to-port="0" />
		<edge from-layer="750" from-port="1" to-layer="755" to-port="0" />
		<edge from-layer="751" from-port="0" to-layer="755" to-port="1" />
		<edge from-layer="752" from-port="0" to-layer="755" to-port="2" />
		<edge from-layer="753" from-port="0" to-layer="755" to-port="3" />
		<edge from-layer="754" from-port="0" to-layer="755" to-port="4" />
		<edge from-layer="755" from-port="5" to-layer="760" to-port="0" />
		<edge from-layer="756" from-port="0" to-layer="757" to-port="0" />
		<edge from-layer="757" from-port="1" to-layer="759" to-port="0" />
		<edge from-layer="758" from-port="0" to-layer="759" to-port="1" />
		<edge from-layer="759" from-port="2" to-layer="760" to-port="1" />
		<edge from-layer="760" from-port="2" to-layer="762" to-port="0" />
		<edge from-layer="761" from-port="0" to-layer="762" to-port="1" />
		<edge from-layer="762" from-port="2" to-layer="796" to-port="0" />
		<edge from-layer="763" from-port="0" to-layer="764" to-port="0" />
		<edge from-layer="764" from-port="1" to-layer="766" to-port="0" />
		<edge from-layer="765" from-port="0" to-layer="766" to-port="1" />
		<edge from-layer="766" from-port="2" to-layer="767" to-port="1" />
		<edge from-layer="767" from-port="2" to-layer="769" to-port="0" />
		<edge from-layer="768" from-port="0" to-layer="769" to-port="1" />
		<edge from-layer="769" from-port="2" to-layer="770" to-port="0" />
		<edge from-layer="770" from-port="1" to-layer="775" to-port="0" />
		<edge from-layer="771" from-port="0" to-layer="775" to-port="1" />
		<edge from-layer="772" from-port="0" to-layer="775" to-port="2" />
		<edge from-layer="773" from-port="0" to-layer="775" to-port="3" />
		<edge from-layer="774" from-port="0" to-layer="775" to-port="4" />
		<edge from-layer="775" from-port="5" to-layer="780" to-port="0" />
		<edge from-layer="776" from-port="0" to-layer="777" to-port="0" />
		<edge from-layer="777" from-port="1" to-layer="779" to-port="0" />
		<edge from-layer="778" from-port="0" to-layer="779" to-port="1" />
		<edge from-layer="779" from-port="2" to-layer="780" to-port="1" />
		<edge from-layer="780" from-port="2" to-layer="782" to-port="0" />
		<edge from-layer="781" from-port="0" to-layer="782" to-port="1" />
		<edge from-layer="782" from-port="2" to-layer="783" to-port="0" />
		<edge from-layer="783" from-port="1" to-layer="788" to-port="0" />
		<edge from-layer="784" from-port="0" to-layer="788" to-port="1" />
		<edge from-layer="785" from-port="0" to-layer="788" to-port="2" />
		<edge from-layer="786" from-port="0" to-layer="788" to-port="3" />
		<edge from-layer="787" from-port="0" to-layer="788" to-port="4" />
		<edge from-layer="788" from-port="5" to-layer="793" to-port="0" />
		<edge from-layer="789" from-port="0" to-layer="790" to-port="0" />
		<edge from-layer="790" from-port="1" to-layer="792" to-port="0" />
		<edge from-layer="791" from-port="0" to-layer="792" to-port="1" />
		<edge from-layer="792" from-port="2" to-layer="793" to-port="1" />
		<edge from-layer="793" from-port="2" to-layer="795" to-port="0" />
		<edge from-layer="794" from-port="0" to-layer="795" to-port="1" />
		<edge from-layer="795" from-port="2" to-layer="796" to-port="1" />
		<edge from-layer="796" from-port="2" to-layer="1033" to-port="0" />
		<edge from-layer="796" from-port="2" to-layer="797" to-port="0" />
		<edge from-layer="797" from-port="1" to-layer="800" to-port="0" />
		<edge from-layer="797" from-port="1" to-layer="815" to-port="0" />
		<edge from-layer="798" from-port="0" to-layer="800" to-port="1" />
		<edge from-layer="799" from-port="0" to-layer="800" to-port="2" />
		<edge from-layer="800" from-port="3" to-layer="1122" to-port="1" />
		<edge from-layer="800" from-port="3" to-layer="801" to-port="0" />
		<edge from-layer="801" from-port="1" to-layer="803" to-port="1" />
		<edge from-layer="802" from-port="0" to-layer="803" to-port="2" />
		<edge from-layer="803" from-port="3" to-layer="805" to-port="0" />
		<edge from-layer="804" from-port="0" to-layer="805" to-port="1" />
		<edge from-layer="805" from-port="2" to-layer="807" to-port="0" />
		<edge from-layer="806" from-port="0" to-layer="807" to-port="1" />
		<edge from-layer="807" from-port="2" to-layer="811" to-port="0" />
		<edge from-layer="807" from-port="2" to-layer="809" to-port="0" />
		<edge from-layer="808" from-port="0" to-layer="810" to-port="0" />
		<edge from-layer="809" from-port="1" to-layer="824" to-port="1" />
		<edge from-layer="809" from-port="1" to-layer="810" to-port="1" />
		<edge from-layer="810" from-port="2" to-layer="811" to-port="1" />
		<edge from-layer="811" from-port="2" to-layer="825" to-port="0" />
		<edge from-layer="812" from-port="0" to-layer="818" to-port="0" />
		<edge from-layer="813" from-port="0" to-layer="815" to-port="1" />
		<edge from-layer="814" from-port="0" to-layer="815" to-port="2" />
		<edge from-layer="815" from-port="3" to-layer="1122" to-port="0" />
		<edge from-layer="815" from-port="3" to-layer="816" to-port="0" />
		<edge from-layer="816" from-port="1" to-layer="818" to-port="1" />
		<edge from-layer="817" from-port="0" to-layer="818" to-port="2" />
		<edge from-layer="818" from-port="3" to-layer="820" to-port="0" />
		<edge from-layer="819" from-port="0" to-layer="820" to-port="1" />
		<edge from-layer="820" from-port="2" to-layer="822" to-port="0" />
		<edge from-layer="821" from-port="0" to-layer="822" to-port="1" />
		<edge from-layer="822" from-port="2" to-layer="823" to-port="0" />
		<edge from-layer="822" from-port="2" to-layer="830" to-port="0" />
		<edge from-layer="823" from-port="1" to-layer="824" to-port="0" />
		<edge from-layer="823" from-port="1" to-layer="829" to-port="0" />
		<edge from-layer="824" from-port="2" to-layer="825" to-port="1" />
		<edge from-layer="824" from-port="2" to-layer="831" to-port="1" />
		<edge from-layer="825" from-port="2" to-layer="827" to-port="0" />
		<edge from-layer="826" from-port="0" to-layer="827" to-port="1" />
		<edge from-layer="827" from-port="2" to-layer="834" to-port="0" />
		<edge from-layer="828" from-port="0" to-layer="829" to-port="1" />
		<edge from-layer="829" from-port="2" to-layer="830" to-port="1" />
		<edge from-layer="830" from-port="2" to-layer="831" to-port="0" />
		<edge from-layer="831" from-port="2" to-layer="833" to-port="0" />
		<edge from-layer="832" from-port="0" to-layer="833" to-port="1" />
		<edge from-layer="833" from-port="2" to-layer="834" to-port="1" />
		<edge from-layer="834" from-port="2" to-layer="836" to-port="0" />
		<edge from-layer="835" from-port="0" to-layer="836" to-port="1" />
		<edge from-layer="836" from-port="2" to-layer="1014" to-port="1" />
		<edge from-layer="837" from-port="0" to-layer="980" to-port="0" />
		<edge from-layer="838" from-port="0" to-layer="839" to-port="0" />
		<edge from-layer="839" from-port="1" to-layer="841" to-port="0" />
		<edge from-layer="840" from-port="0" to-layer="841" to-port="1" />
		<edge from-layer="841" from-port="2" to-layer="842" to-port="1" />
		<edge from-layer="842" from-port="2" to-layer="844" to-port="0" />
		<edge from-layer="843" from-port="0" to-layer="844" to-port="1" />
		<edge from-layer="844" from-port="2" to-layer="845" to-port="0" />
		<edge from-layer="845" from-port="1" to-layer="850" to-port="0" />
		<edge from-layer="846" from-port="0" to-layer="850" to-port="1" />
		<edge from-layer="847" from-port="0" to-layer="850" to-port="2" />
		<edge from-layer="848" from-port="0" to-layer="850" to-port="3" />
		<edge from-layer="849" from-port="0" to-layer="850" to-port="4" />
		<edge from-layer="850" from-port="5" to-layer="851" to-port="0" />
		<edge from-layer="851" from-port="2" to-layer="856" to-port="0" />
		<edge from-layer="852" from-port="0" to-layer="853" to-port="0" />
		<edge from-layer="853" from-port="1" to-layer="855" to-port="0" />
		<edge from-layer="854" from-port="0" to-layer="855" to-port="1" />
		<edge from-layer="855" from-port="2" to-layer="856" to-port="1" />
		<edge from-layer="856" from-port="2" to-layer="858" to-port="0" />
		<edge from-layer="857" from-port="0" to-layer="858" to-port="1" />
		<edge from-layer="858" from-port="2" to-layer="859" to-port="0" />
		<edge from-layer="859" from-port="1" to-layer="864" to-port="0" />
		<edge from-layer="860" from-port="0" to-layer="864" to-port="1" />
		<edge from-layer="861" from-port="0" to-layer="864" to-port="2" />
		<edge from-layer="862" from-port="0" to-layer="864" to-port="3" />
		<edge from-layer="863" from-port="0" to-layer="864" to-port="4" />
		<edge from-layer="864" from-port="5" to-layer="866" to-port="0" />
		<edge from-layer="865" from-port="0" to-layer="866" to-port="1" />
		<edge from-layer="866" from-port="3" to-layer="893" to-port="0" />
		<edge from-layer="866" from-port="4" to-layer="893" to-port="1" />
		<edge from-layer="866" from-port="4" to-layer="871" to-port="0" />
		<edge from-layer="867" from-port="0" to-layer="868" to-port="0" />
		<edge from-layer="868" from-port="1" to-layer="870" to-port="0" />
		<edge from-layer="869" from-port="0" to-layer="870" to-port="1" />
		<edge from-layer="870" from-port="2" to-layer="871" to-port="1" />
		<edge from-layer="871" from-port="2" to-layer="873" to-port="0" />
		<edge from-layer="872" from-port="0" to-layer="873" to-port="1" />
		<edge from-layer="873" from-port="2" to-layer="874" to-port="0" />
		<edge from-layer="874" from-port="1" to-layer="879" to-port="0" />
		<edge from-layer="875" from-port="0" to-layer="879" to-port="1" />
		<edge from-layer="876" from-port="0" to-layer="879" to-port="2" />
		<edge from-layer="877" from-port="0" to-layer="879" to-port="3" />
		<edge from-layer="878" from-port="0" to-layer="879" to-port="4" />
		<edge from-layer="879" from-port="5" to-layer="884" to-port="0" />
		<edge from-layer="880" from-port="0" to-layer="881" to-port="0" />
		<edge from-layer="881" from-port="1" to-layer="883" to-port="0" />
		<edge from-layer="882" from-port="0" to-layer="883" to-port="1" />
		<edge from-layer="883" from-port="2" to-layer="884" to-port="1" />
		<edge from-layer="884" from-port="2" to-layer="886" to-port="0" />
		<edge from-layer="885" from-port="0" to-layer="886" to-port="1" />
		<edge from-layer="886" from-port="2" to-layer="887" to-port="0" />
		<edge from-layer="887" from-port="1" to-layer="892" to-port="0" />
		<edge from-layer="888" from-port="0" to-layer="892" to-port="1" />
		<edge from-layer="889" from-port="0" to-layer="892" to-port="2" />
		<edge from-layer="890" from-port="0" to-layer="892" to-port="3" />
		<edge from-layer="891" from-port="0" to-layer="892" to-port="4" />
		<edge from-layer="892" from-port="5" to-layer="893" to-port="2" />
		<edge from-layer="893" from-port="3" to-layer="898" to-port="0" />
		<edge from-layer="894" from-port="0" to-layer="895" to-port="0" />
		<edge from-layer="895" from-port="1" to-layer="897" to-port="0" />
		<edge from-layer="896" from-port="0" to-layer="897" to-port="1" />
		<edge from-layer="897" from-port="2" to-layer="898" to-port="1" />
		<edge from-layer="898" from-port="2" to-layer="900" to-port="0" />
		<edge from-layer="899" from-port="0" to-layer="900" to-port="1" />
		<edge from-layer="900" from-port="2" to-layer="901" to-port="0" />
		<edge from-layer="901" from-port="1" to-layer="906" to-port="0" />
		<edge from-layer="902" from-port="0" to-layer="906" to-port="1" />
		<edge from-layer="903" from-port="0" to-layer="906" to-port="2" />
		<edge from-layer="904" from-port="0" to-layer="906" to-port="3" />
		<edge from-layer="905" from-port="0" to-layer="906" to-port="4" />
		<edge from-layer="906" from-port="5" to-layer="944" to-port="0" />
		<edge from-layer="906" from-port="5" to-layer="911" to-port="0" />
		<edge from-layer="907" from-port="0" to-layer="908" to-port="0" />
		<edge from-layer="908" from-port="1" to-layer="910" to-port="0" />
		<edge from-layer="909" from-port="0" to-layer="910" to-port="1" />
		<edge from-layer="910" from-port="2" to-layer="911" to-port="1" />
		<edge from-layer="911" from-port="2" to-layer="913" to-port="0" />
		<edge from-layer="912" from-port="0" to-layer="913" to-port="1" />
		<edge from-layer="913" from-port="2" to-layer="914" to-port="0" />
		<edge from-layer="914" from-port="1" to-layer="919" to-port="0" />
		<edge from-layer="915" from-port="0" to-layer="919" to-port="1" />
		<edge from-layer="916" from-port="0" to-layer="919" to-port="2" />
		<edge from-layer="917" from-port="0" to-layer="919" to-port="3" />
		<edge from-layer="918" from-port="0" to-layer="919" to-port="4" />
		<edge from-layer="919" from-port="5" to-layer="924" to-port="0" />
		<edge from-layer="920" from-port="0" to-layer="921" to-port="0" />
		<edge from-layer="921" from-port="1" to-layer="923" to-port="0" />
		<edge from-layer="922" from-port="0" to-layer="923" to-port="1" />
		<edge from-layer="923" from-port="2" to-layer="924" to-port="1" />
		<edge from-layer="924" from-port="2" to-layer="926" to-port="0" />
		<edge from-layer="925" from-port="0" to-layer="926" to-port="1" />
		<edge from-layer="926" from-port="2" to-layer="927" to-port="0" />
		<edge from-layer="927" from-port="1" to-layer="932" to-port="0" />
		<edge from-layer="928" from-port="0" to-layer="932" to-port="1" />
		<edge from-layer="929" from-port="0" to-layer="932" to-port="2" />
		<edge from-layer="930" from-port="0" to-layer="932" to-port="3" />
		<edge from-layer="931" from-port="0" to-layer="932" to-port="4" />
		<edge from-layer="932" from-port="5" to-layer="937" to-port="0" />
		<edge from-layer="933" from-port="0" to-layer="934" to-port="0" />
		<edge from-layer="934" from-port="1" to-layer="936" to-port="0" />
		<edge from-layer="935" from-port="0" to-layer="936" to-port="1" />
		<edge from-layer="936" from-port="2" to-layer="937" to-port="1" />
		<edge from-layer="937" from-port="2" to-layer="939" to-port="0" />
		<edge from-layer="938" from-port="0" to-layer="939" to-port="1" />
		<edge from-layer="939" from-port="2" to-layer="973" to-port="0" />
		<edge from-layer="940" from-port="0" to-layer="941" to-port="0" />
		<edge from-layer="941" from-port="1" to-layer="943" to-port="0" />
		<edge from-layer="942" from-port="0" to-layer="943" to-port="1" />
		<edge from-layer="943" from-port="2" to-layer="944" to-port="1" />
		<edge from-layer="944" from-port="2" to-layer="946" to-port="0" />
		<edge from-layer="945" from-port="0" to-layer="946" to-port="1" />
		<edge from-layer="946" from-port="2" to-layer="947" to-port="0" />
		<edge from-layer="947" from-port="1" to-layer="952" to-port="0" />
		<edge from-layer="948" from-port="0" to-layer="952" to-port="1" />
		<edge from-layer="949" from-port="0" to-layer="952" to-port="2" />
		<edge from-layer="950" from-port="0" to-layer="952" to-port="3" />
		<edge from-layer="951" from-port="0" to-layer="952" to-port="4" />
		<edge from-layer="952" from-port="5" to-layer="957" to-port="0" />
		<edge from-layer="953" from-port="0" to-layer="954" to-port="0" />
		<edge from-layer="954" from-port="1" to-layer="956" to-port="0" />
		<edge from-layer="955" from-port="0" to-layer="956" to-port="1" />
		<edge from-layer="956" from-port="2" to-layer="957" to-port="1" />
		<edge from-layer="957" from-port="2" to-layer="959" to-port="0" />
		<edge from-layer="958" from-port="0" to-layer="959" to-port="1" />
		<edge from-layer="959" from-port="2" to-layer="960" to-port="0" />
		<edge from-layer="960" from-port="1" to-layer="965" to-port="0" />
		<edge from-layer="961" from-port="0" to-layer="965" to-port="1" />
		<edge from-layer="962" from-port="0" to-layer="965" to-port="2" />
		<edge from-layer="963" from-port="0" to-layer="965" to-port="3" />
		<edge from-layer="964" from-port="0" to-layer="965" to-port="4" />
		<edge from-layer="965" from-port="5" to-layer="970" to-port="0" />
		<edge from-layer="966" from-port="0" to-layer="967" to-port="0" />
		<edge from-layer="967" from-port="1" to-layer="969" to-port="0" />
		<edge from-layer="968" from-port="0" to-layer="969" to-port="1" />
		<edge from-layer="969" from-port="2" to-layer="970" to-port="1" />
		<edge from-layer="970" from-port="2" to-layer="972" to-port="0" />
		<edge from-layer="971" from-port="0" to-layer="972" to-port="1" />
		<edge from-layer="972" from-port="2" to-layer="973" to-port="1" />
		<edge from-layer="973" from-port="2" to-layer="974" to-port="0" />
		<edge from-layer="973" from-port="2" to-layer="1040" to-port="0" />
		<edge from-layer="974" from-port="1" to-layer="992" to-port="0" />
		<edge from-layer="974" from-port="1" to-layer="977" to-port="0" />
		<edge from-layer="975" from-port="0" to-layer="977" to-port="1" />
		<edge from-layer="976" from-port="0" to-layer="977" to-port="2" />
		<edge from-layer="977" from-port="3" to-layer="1131" to-port="1" />
		<edge from-layer="977" from-port="3" to-layer="978" to-port="0" />
		<edge from-layer="978" from-port="1" to-layer="980" to-port="1" />
		<edge from-layer="979" from-port="0" to-layer="980" to-port="2" />
		<edge from-layer="980" from-port="3" to-layer="982" to-port="0" />
		<edge from-layer="981" from-port="0" to-layer="982" to-port="1" />
		<edge from-layer="982" from-port="2" to-layer="984" to-port="0" />
		<edge from-layer="983" from-port="0" to-layer="984" to-port="1" />
		<edge from-layer="984" from-port="2" to-layer="986" to-port="0" />
		<edge from-layer="984" from-port="2" to-layer="988" to-port="0" />
		<edge from-layer="985" from-port="0" to-layer="987" to-port="0" />
		<edge from-layer="986" from-port="1" to-layer="987" to-port="1" />
		<edge from-layer="986" from-port="1" to-layer="1001" to-port="1" />
		<edge from-layer="987" from-port="2" to-layer="988" to-port="1" />
		<edge from-layer="988" from-port="2" to-layer="1002" to-port="0" />
		<edge from-layer="989" from-port="0" to-layer="995" to-port="0" />
		<edge from-layer="990" from-port="0" to-layer="992" to-port="1" />
		<edge from-layer="991" from-port="0" to-layer="992" to-port="2" />
		<edge from-layer="992" from-port="3" to-layer="993" to-port="0" />
		<edge from-layer="992" from-port="3" to-layer="1131" to-port="0" />
		<edge from-layer="993" from-port="1" to-layer="995" to-port="1" />
		<edge from-layer="994" from-port="0" to-layer="995" to-port="2" />
		<edge from-layer="995" from-port="3" to-layer="997" to-port="0" />
		<edge from-layer="996" from-port="0" to-layer="997" to-port="1" />
		<edge from-layer="997" from-port="2" to-layer="999" to-port="0" />
		<edge from-layer="998" from-port="0" to-layer="999" to-port="1" />
		<edge from-layer="999" from-port="2" to-layer="1007" to-port="0" />
		<edge from-layer="999" from-port="2" to-layer="1000" to-port="0" />
		<edge from-layer="1000" from-port="1" to-layer="1006" to-port="0" />
		<edge from-layer="1000" from-port="1" to-layer="1001" to-port="0" />
		<edge from-layer="1001" from-port="2" to-layer="1008" to-port="1" />
		<edge from-layer="1001" from-port="2" to-layer="1002" to-port="1" />
		<edge from-layer="1002" from-port="2" to-layer="1004" to-port="0" />
		<edge from-layer="1003" from-port="0" to-layer="1004" to-port="1" />
		<edge from-layer="1004" from-port="2" to-layer="1011" to-port="0" />
		<edge from-layer="1005" from-port="0" to-layer="1006" to-port="1" />
		<edge from-layer="1006" from-port="2" to-layer="1007" to-port="1" />
		<edge from-layer="1007" from-port="2" to-layer="1008" to-port="0" />
		<edge from-layer="1008" from-port="2" to-layer="1010" to-port="0" />
		<edge from-layer="1009" from-port="0" to-layer="1010" to-port="1" />
		<edge from-layer="1010" from-port="2" to-layer="1011" to-port="1" />
		<edge from-layer="1011" from-port="2" to-layer="1013" to-port="0" />
		<edge from-layer="1012" from-port="0" to-layer="1013" to-port="1" />
		<edge from-layer="1013" from-port="2" to-layer="1014" to-port="2" />
		<edge from-layer="1014" from-port="3" to-layer="1016" to-port="0" />
		<edge from-layer="1015" from-port="0" to-layer="1016" to-port="1" />
		<edge from-layer="1016" from-port="2" to-layer="1018" to-port="0" />
		<edge from-layer="1017" from-port="0" to-layer="1018" to-port="1" />
		<edge from-layer="1018" from-port="2" to-layer="1085" to-port="0" />
		<edge from-layer="1018" from-port="2" to-layer="1101" to-port="0" />
		<edge from-layer="1019" from-port="1" to-layer="1029" to-port="0" />
		<edge from-layer="1019" from-port="1" to-layer="1022" to-port="0" />
		<edge from-layer="1019" from-port="1" to-layer="1036" to-port="0" />
		<edge from-layer="1020" from-port="0" to-layer="1022" to-port="1" />
		<edge from-layer="1021" from-port="0" to-layer="1022" to-port="2" />
		<edge from-layer="1022" from-port="3" to-layer="1025" to-port="0" />
		<edge from-layer="1023" from-port="0" to-layer="1025" to-port="1" />
		<edge from-layer="1024" from-port="0" to-layer="1025" to-port="2" />
		<edge from-layer="1025" from-port="3" to-layer="1026" to-port="1" />
		<edge from-layer="1026" from-port="2" to-layer="1041" to-port="0" />
		<edge from-layer="1027" from-port="0" to-layer="1029" to-port="1" />
		<edge from-layer="1028" from-port="0" to-layer="1029" to-port="2" />
		<edge from-layer="1029" from-port="3" to-layer="1032" to-port="0" />
		<edge from-layer="1030" from-port="0" to-layer="1032" to-port="1" />
		<edge from-layer="1031" from-port="0" to-layer="1032" to-port="2" />
		<edge from-layer="1032" from-port="3" to-layer="1033" to-port="1" />
		<edge from-layer="1033" from-port="2" to-layer="1041" to-port="1" />
		<edge from-layer="1034" from-port="0" to-layer="1036" to-port="1" />
		<edge from-layer="1035" from-port="0" to-layer="1036" to-port="2" />
		<edge from-layer="1036" from-port="3" to-layer="1039" to-port="0" />
		<edge from-layer="1037" from-port="0" to-layer="1039" to-port="1" />
		<edge from-layer="1038" from-port="0" to-layer="1039" to-port="2" />
		<edge from-layer="1039" from-port="3" to-layer="1040" to-port="1" />
		<edge from-layer="1040" from-port="2" to-layer="1041" to-port="2" />
		<edge from-layer="1041" from-port="3" to-layer="1044" to-port="0" />
		<edge from-layer="1042" from-port="0" to-layer="1044" to-port="1" />
		<edge from-layer="1043" from-port="0" to-layer="1044" to-port="2" />
		<edge from-layer="1044" from-port="4" to-layer="1143" to-port="0" />
		<edge from-layer="1044" from-port="3" to-layer="1048" to-port="0" />
		<edge from-layer="1044" from-port="3" to-layer="1053" to-port="0" />
		<edge from-layer="1045" from-port="0" to-layer="1052" to-port="0" />
		<edge from-layer="1046" from-port="0" to-layer="1052" to-port="1" />
		<edge from-layer="1047" from-port="0" to-layer="1052" to-port="2" />
		<edge from-layer="1048" from-port="1" to-layer="1051" to-port="0" />
		<edge from-layer="1048" from-port="1" to-layer="1063" to-port="0" />
		<edge from-layer="1048" from-port="1" to-layer="1067" to-port="0" />
		<edge from-layer="1049" from-port="0" to-layer="1051" to-port="1" />
		<edge from-layer="1050" from-port="0" to-layer="1051" to-port="2" />
		<edge from-layer="1051" from-port="3" to-layer="1052" to-port="3" />
		<edge from-layer="1052" from-port="4" to-layer="1053" to-port="1" />
		<edge from-layer="1053" from-port="2" to-layer="1055" to-port="0" />
		<edge from-layer="1054" from-port="0" to-layer="1055" to-port="1" />
		<edge from-layer="1055" from-port="2" to-layer="1056" to-port="0" />
		<edge from-layer="1056" from-port="1" to-layer="1058" to-port="0" />
		<edge from-layer="1057" from-port="0" to-layer="1058" to-port="1" />
		<edge from-layer="1058" from-port="2" to-layer="1060" to-port="0" />
		<edge from-layer="1059" from-port="0" to-layer="1060" to-port="1" />
		<edge from-layer="1060" from-port="2" to-layer="1069" to-port="0" />
		<edge from-layer="1061" from-port="0" to-layer="1063" to-port="1" />
		<edge from-layer="1062" from-port="0" to-layer="1063" to-port="2" />
		<edge from-layer="1063" from-port="3" to-layer="1068" to-port="0" />
		<edge from-layer="1064" from-port="0" to-layer="1068" to-port="1" />
		<edge from-layer="1065" from-port="0" to-layer="1067" to-port="1" />
		<edge from-layer="1066" from-port="0" to-layer="1067" to-port="2" />
		<edge from-layer="1067" from-port="3" to-layer="1068" to-port="2" />
		<edge from-layer="1068" from-port="3" to-layer="1069" to-port="1" />
		<edge from-layer="1069" from-port="2" to-layer="1073" to-port="0" />
		<edge from-layer="1069" from-port="2" to-layer="1100" to-port="0" />
		<edge from-layer="1069" from-port="2" to-layer="1084" to-port="0" />
		<edge from-layer="1070" from-port="0" to-layer="1084" to-port="1" />
		<edge from-layer="1071" from-port="0" to-layer="1082" to-port="0" />
		<edge from-layer="1072" from-port="0" to-layer="1082" to-port="1" />
		<edge from-layer="1073" from-port="1" to-layer="1076" to-port="0" />
		<edge from-layer="1074" from-port="0" to-layer="1076" to-port="1" />
		<edge from-layer="1075" from-port="0" to-layer="1076" to-port="2" />
		<edge from-layer="1076" from-port="3" to-layer="1078" to-port="0" />
		<edge from-layer="1077" from-port="0" to-layer="1078" to-port="1" />
		<edge from-layer="1078" from-port="2" to-layer="1080" to-port="0" />
		<edge from-layer="1079" from-port="0" to-layer="1080" to-port="1" />
		<edge from-layer="1080" from-port="2" to-layer="1094" to-port="2" />
		<edge from-layer="1080" from-port="2" to-layer="1097" to-port="0" />
		<edge from-layer="1080" from-port="2" to-layer="1082" to-port="2" />
		<edge from-layer="1081" from-port="0" to-layer="1082" to-port="3" />
		<edge from-layer="1082" from-port="4" to-layer="1084" to-port="2" />
		<edge from-layer="1083" from-port="0" to-layer="1084" to-port="3" />
		<edge from-layer="1084" from-port="4" to-layer="1085" to-port="1" />
		<edge from-layer="1085" from-port="2" to-layer="1090" to-port="0" />
		<edge from-layer="1085" from-port="2" to-layer="1110" to-port="1" />
		<edge from-layer="1086" from-port="0" to-layer="1090" to-port="1" />
		<edge from-layer="1087" from-port="0" to-layer="1090" to-port="2" />
		<edge from-layer="1088" from-port="0" to-layer="1090" to-port="3" />
		<edge from-layer="1089" from-port="0" to-layer="1090" to-port="4" />
		<edge from-layer="1090" from-port="5" to-layer="1107" to-port="0" />
		<edge from-layer="1091" from-port="0" to-layer="1094" to-port="0" />
		<edge from-layer="1092" from-port="0" to-layer="1098" to-port="1" />
		<edge from-layer="1092" from-port="0" to-layer="1094" to-port="1" />
		<edge from-layer="1093" from-port="0" to-layer="1094" to-port="3" />
		<edge from-layer="1093" from-port="0" to-layer="1098" to-port="3" />
		<edge from-layer="1094" from-port="4" to-layer="1100" to-port="1" />
		<edge from-layer="1095" from-port="0" to-layer="1098" to-port="0" />
		<edge from-layer="1096" from-port="0" to-layer="1097" to-port="1" />
		<edge from-layer="1097" from-port="2" to-layer="1098" to-port="2" />
		<edge from-layer="1098" from-port="4" to-layer="1100" to-port="2" />
		<edge from-layer="1099" from-port="0" to-layer="1100" to-port="3" />
		<edge from-layer="1100" from-port="4" to-layer="1101" to-port="1" />
		<edge from-layer="1101" from-port="2" to-layer="1106" to-port="0" />
		<edge from-layer="1101" from-port="2" to-layer="1110" to-port="0" />
		<edge from-layer="1102" from-port="0" to-layer="1106" to-port="1" />
		<edge from-layer="1103" from-port="0" to-layer="1106" to-port="2" />
		<edge from-layer="1104" from-port="0" to-layer="1106" to-port="3" />
		<edge from-layer="1105" from-port="0" to-layer="1106" to-port="4" />
		<edge from-layer="1106" from-port="5" to-layer="1107" to-port="1" />
		<edge from-layer="1107" from-port="2" to-layer="1109" to-port="0" />
		<edge from-layer="1108" from-port="0" to-layer="1109" to-port="1" />
		<edge from-layer="1109" from-port="2" to-layer="1111" to-port="0" />
		<edge from-layer="1110" from-port="2" to-layer="1111" to-port="1" />
		<edge from-layer="1111" from-port="2" to-layer="1142" to-port="0" />
		<edge from-layer="1112" from-port="0" to-layer="1118" to-port="0" />
		<edge from-layer="1113" from-port="2" to-layer="1115" to-port="0" />
		<edge from-layer="1114" from-port="0" to-layer="1115" to-port="1" />
		<edge from-layer="1115" from-port="2" to-layer="1117" to-port="0" />
		<edge from-layer="1116" from-port="0" to-layer="1117" to-port="1" />
		<edge from-layer="1117" from-port="2" to-layer="1118" to-port="1" />
		<edge from-layer="1118" from-port="2" to-layer="1120" to-port="0" />
		<edge from-layer="1119" from-port="0" to-layer="1120" to-port="1" />
		<edge from-layer="1120" from-port="2" to-layer="1139" to-port="0" />
		<edge from-layer="1121" from-port="0" to-layer="1127" to-port="0" />
		<edge from-layer="1122" from-port="2" to-layer="1124" to-port="0" />
		<edge from-layer="1123" from-port="0" to-layer="1124" to-port="1" />
		<edge from-layer="1124" from-port="2" to-layer="1126" to-port="0" />
		<edge from-layer="1125" from-port="0" to-layer="1126" to-port="1" />
		<edge from-layer="1126" from-port="2" to-layer="1127" to-port="1" />
		<edge from-layer="1127" from-port="2" to-layer="1129" to-port="0" />
		<edge from-layer="1128" from-port="0" to-layer="1129" to-port="1" />
		<edge from-layer="1129" from-port="2" to-layer="1139" to-port="1" />
		<edge from-layer="1130" from-port="0" to-layer="1136" to-port="0" />
		<edge from-layer="1131" from-port="2" to-layer="1133" to-port="0" />
		<edge from-layer="1132" from-port="0" to-layer="1133" to-port="1" />
		<edge from-layer="1133" from-port="2" to-layer="1135" to-port="0" />
		<edge from-layer="1134" from-port="0" to-layer="1135" to-port="1" />
		<edge from-layer="1135" from-port="2" to-layer="1136" to-port="1" />
		<edge from-layer="1136" from-port="2" to-layer="1138" to-port="0" />
		<edge from-layer="1137" from-port="0" to-layer="1138" to-port="1" />
		<edge from-layer="1138" from-port="2" to-layer="1139" to-port="2" />
		<edge from-layer="1139" from-port="3" to-layer="1141" to-port="0" />
		<edge from-layer="1140" from-port="0" to-layer="1141" to-port="1" />
		<edge from-layer="1141" from-port="2" to-layer="1142" to-port="1" />
		<edge from-layer="1142" from-port="2" to-layer="1144" to-port="0" />
		<edge from-layer="1143" from-port="1" to-layer="1144" to-port="1" />
		<edge from-layer="1144" from-port="2" to-layer="1145" to-port="0" />
	</edges>
	<rt_info>
		<MO_version value="2022.3.0-9052-9752fafe8eb-releases/2022/3" />
		<Runtime_version value="2022.3.0-9052-9752fafe8eb-releases/2022/3" />
		<conversion_parameters>
			<framework value="onnx" />
			<input_model value="DIR/best_based_on_nano.onnx" />
			<model_name value="best_based_on_nano" />
		</conversion_parameters>
		<framework>
			<author value="Ultralytics" />
			<batch value="1" />
			<description value="Ultralytics best_based_on_nano model trained on data.yaml" />
			<imgsz value="[640, 640]" />
			<license value="GPL-3.0 https://ultralytics.com/license" />
			<names value="{0: 'crossed_highway_sign', 1: 'green_light', 2: 'highway_sign', 3: 'no_entry_sign', 4: 'one_way_road_sign', 5: 'parking_sign', 6: 'pedestrian_sign', 7: 'priority_sign', 8: 'red_light', 9: 'roundabout_sign', 10: 'stop_sign', 11: 'yellow_light', 12: 'car', 13: 'pedestrian', 14: 'roadblock'}" />
			<stride value="32" />
			<task value="detect" />
			<version value="8.0.53" />
		</framework>
		<legacy_frontend value="False" />
		<quantization_parameters />
	</rt_info>
</net>
